saved/MH_DQN/checkpoint_actor_local_MP.pth (torch, 42911 bytes, 7 tensors)

body.0.0.weight f4 [128, 9]
000000 36 91 46 3e 49 4f c6 bd 1e 43 11 3e 3e a5 b0 be
       0.19391331 -0.09683091 0.1418576 -0.3450107
000010 4a 31 3f 3e bd 80 f4 3c e9 49 68 3e 71 4e d0 3e
       0.18671146 0.029846543 0.22684444 0.40684846
000020 13 f2 64 be 48 60 8e 3e 5c df f9 3d 20 94 e7 be
       -0.22357969 0.27807832 0.122008055 -0.45230198
000030 90 cf 5b 3d 2e c2 ca bb 5b b4 01 3f e1 71 50 3e
       0.053664744 -0.006187699 0.50665826 0.20355941
000040 03 ff 10 bc 39 a0 91 3e 81 7f 1a 3d c6 cd ab 3e
       -0.008849862 0.28442553 0.037719253 0.3355543
000050 c1 e2 5e be 1e e7 88 be 23 98 92 be b8 c4 98 3e
       -0.21766187 -0.26738828 -0.28631696 0.29837584
000060 a7 7d 8a be 2e 2a 1d 3e a6 8a e9 bd 9c 6a be 3d
       -0.2704899 0.15348122 -0.11403398 0.09297678
000070 c6 19 15 3e f8 0e 59 be 8c 86 a1 bd eb 7d 9f be
       0.14560613 -0.21197116 -0.07886991 -0.31150755
000080 2e 51 8b be 20 94 35 bc b8 ac 05 bd 28 ee 1c 3e
       -0.27210373 -0.011082679 -0.03263542 0.15325224
000090 cb 77 79 be 1a 07 35 3e 12 a9 7c 3e 20 53 84 be
       -0.24362104 0.1767849 0.2467387 -0.2584467
0000a0 2c c9 a9 bd 00 19 42 3c 4c 42 80 be 03 a4 82 be
       -0.082903236 0.011846781 -0.2505058 -0.25515756
0000b0 80 72 1b 3d 05 60 14 be a9 70 d6 3e 80 eb c0 be
       0.037950993 -0.14489754 0.41882828 -0.37679672
0000c0 c5 b7 d5 bd 39 f5 b7 3e d2 f4 1c bd 6e c3 97 3d
       -0.10435442 0.35929278 -0.038319416 0.07410322
0000d0 44 b7 a3 bd 3a 6d 52 3e 7e 4f 97 3e b5 29 4b be
       -0.079939395 0.20549479 0.29552835 -0.19840129
0000e0 00 d2 68 be c1 8b 08 3e 12 e5 5b be ee e6 c7 3d
       -0.22736359 0.13334562 -0.21474102 0.09760843
0000f0 ae a4 35 be c2 b9 2e bd 52 f7 27 3e 17 b2 4a 3d
       -0.17738602 -0.04265762 0.16402939 0.049486246
000100 c1 48 53 be b2 2d 71 3c 1c 9a bb 3e 98 0d 39 be
       -0.20633222 0.014720367 0.36641014 -0.18071592
000110 06 be 8f 3e 2a a4 2e 3e c1 49 ab be 77 8e 8f 3e
       0.28074664 0.17054811 -0.33454707 0.2803838
000120 a1 ce 6a 3c 8b 60 15 3d 42 03 09 3d d5 a2 a7 be
       0.014331491 0.036469024 0.033450373 -0.32741418
000130 9f 8c 89 be ef aa 1b bd 70 ad 0d bf 4f 79 14 3f
       -0.26865098 -0.03800481 -0.5534277 0.579976
000140 8e 39 70 3e 3f 0e c5 3d 03 1b 91 3e fc 7a ad 3e
       0.23459455 0.09621858 0.2834092 0.33882892
000150 a3 62 bb be 89 17 88 bc 3d b7 29 3e 0e af cc 3d
       -0.3659869 -0.016612785 0.16573806 0.099943265
000160 9f f8 c4 3e 08 6f 52 bd 95 bf 6a 3e ec 85 50 3e
       0.38470933 -0.05137542 0.22924645 0.20363587
000170 cf f4 26 be 92 ba 64 3e a6 9b 93 3e 48 bd 52 3e
       -0.16304325 0.22336796 0.28829688 0.20580018
000180 9b fd 5b 3e 99 88 88 be d2 f3 3e 3e 1b 28 78 3e
       0.21483462 -0.26666716 0.18647698 0.24234049
000190 73 52 00 be 43 f0 0f 3f ad 8a 6f 3e 98 f3 bd 3d
       -0.12531452 0.56225985 0.23392744 0.092749774
0001a0 79 88 09 be cb 4c bd bc c7 35 52 3e 80 ad c2 bd
       -0.13430966 -0.023107907 0.20528327 -0.09505749
0001b0 5e ef 77 bd 83 dc c3 3e 9a 87 e0 be 26 53 f3 3d
       -0.060531013 0.38254175 -0.43853456 0.11881094
0001c0 eb 59 f6 3c af 3d eb 3e 2c 95 70 3e 06 20 85 bd
       0.030072173 0.45945498 0.23494405 -0.065002486
0001d0 3e cd 14 be 84 f8 ab 3e e9 0c ea 3e 39 f4 ef be
       -0.14531419 0.3358804 0.45712975 -0.46866015
0001e0 1b e9 88 bd 89 8a da 3d cb 79 73 3e 16 cc 7a 3e
       -0.06685086 0.10670955 0.23776929 0.24491915
0001f0 59 56 a8 bd 3e de 30 3e 9b c7 77 3e b8 e8 09 3c
       -0.082195945 0.17272279 0.24197237 0.008417301
000200 78 49 f1 be e7 b3 b3 3e 88 59 05 be 80 b6 03 be
       -0.47126365 0.35098192 -0.13022435 -0.12862587
000210 73 c7 b8 3e d4 29 bd 3e 66 55 4b be aa 15 19 3e
       0.36089668 0.36945975 -0.19856796 0.1494967
000220 7b a1 1b be 6c 94 d9 bd 5e e3 55 be 6e 48 9a be
       -0.15198319 -0.10624012 -0.20887515 -0.30133384
000230 96 b6 35 3e f0 e8 d5 bd 43 6a 74 be 1a 56 75 3e
       0.17745432 -0.1044482 -0.2386866 0.23958626
000240 18 01 77 be 9b e4 9d be ba 0e 8d ba 00 f3 91 3d
       -0.24121511 -0.30838475 -0.0010761835 0.07126427
000250 9b fa 66 3e cf a8 ed be 0a e7 f6 be f9 63 c8 3e
       0.22556536 -0.46417853 -0.48223144 0.39138773
000260 88 75 50 be f5 8c 2e bd 95 60 2d be 0e 98 1a 3f
       -0.20357335 -0.042614896 -0.16931374 0.6038827
000270 3b f6 f9 be cb 30 ee 3e 12 e0 94 3e 16 36 a2 3d
       -0.4882067 0.465216 0.29077202 0.07920472
000280 b9 48 bd be 5c 62 8b 3d 56 ad 0d be 13 dc 5b be
       -0.36969545 0.0680587 -0.13835654 -0.2147067
000290 8b 6c 9c 3e 0d dd 8c be d5 a3 a3 3e 15 18 40 be
       0.30551562 -0.27512398 0.3196093 -0.18759187
0002a0 9f 1b a8 bd fc 89 92 be 09 6a 87 3e 35 f6 cf 3e
       -0.08208393 -0.286209 0.26448086 0.4061753
0002b0 c8 d9 1f 3e 09 9a b0 be 7e 74 ae 3e d2 07 b0 3e
       0.1561042 -0.3449252 0.3407325 0.34380966
0002c0 78 54 1d be 01 5d 84 be 95 57 8a 3a 7f c5 96 3e
       -0.15364254 -0.25852206 0.0010554666 0.29447553
0002d0 52 e9 f8 be ab c6 33 3e 92 7c 17 3e 2a f8 3e be
       -0.4861551 0.17556255 0.14793614 -0.18649355
0002e0 a8 1f 49 3e db be c0 bb cf 1a a7 3e 1f df 28 3e
       0.19640982 -0.0058821267 0.3263764 0.16491364
0002f0 e0 d6 bf bd 60 cd 80 3d 42 fa d3 be c6 f9 58 3d
       -0.09367156 0.06289172 -0.4140187 0.052972578
000300 77 3a 4e be c9 89 5e 3e b2 4d 93 bb 6d 65 c3 3d
       -0.2013949 0.21732248 -0.004495346 0.0954083
000310 5e 84 79 3e 70 42 fa 3d 34 89 e4 be 00 64 6a be
       0.243669 0.12219703 -0.44635928 -0.2288971
000320 9a 8e dc 3e bb ba 1a 3e 03 46 81 be f5 4f 99 be
       0.43077546 0.15110295 -0.25248727 -0.29943815
000330 db b8 0a 3e 60 65 7c 3e 2e 57 28 3e b8 62 21 3e
       0.1354708 0.24648046 0.16439506 0.15760314
000340 59 10 e5 3e 40 20 cf be d2 62 a5 3e 45 62 59 3e
       0.44739035 -0.40454292 0.32301956 0.21228893
000350 ea 9e 21 bd ca 23 d7 bd 6a 48 56 be b0 d9 89 be
       -0.039458193 -0.10504873 -0.20926061 -0.26923895
000360 f3 fb 52 3d cf 75 bc be fe 40 62 be be 90 d4 3d
       0.05150981 -0.3680863 -0.22095105 0.1037917
000370 ef 7b b5 3e 50 4e 4e 3e 12 90 ac 3c 98 27 62 be
       0.35446116 0.20147061 0.021064792 -0.22085416
000380 f3 e0 89 3e 53 9a 7a be db 35 cc 3e 02 58 cf be
       0.26929435 -0.24472933 0.39884838 -0.40496832
000390 e3 f5 cf 3d 4c f3 c0 3d be 71 59 be 1f db 5f 3d
       0.10154321 0.09421405 -0.21234795 0.05465233
0003a0 42 c4 39 3e 18 17 11 3e 60 15 ef 3d 4d a4 9f 3e
       0.18141273 0.14168966 0.11673999 0.3118004
0003b0 de 4c 95 be a4 a2 82 3d ab 87 90 be 10 52 f7 3d
       -0.29160208 0.063786775 -0.28228506 0.12076199
0003c0 c0 97 95 bd c0 5e e8 3c e0 4b 57 bc 77 a5 58 3e
       -0.07304335 0.028365493 -0.013140649 0.2115687
0003d0 72 8a 23 be 56 6c 36 3e 2b c1 a3 3e 85 a1 81 bd
       -0.15970781 0.17814764 0.31983313 -0.063296355
0003e0 9a 7b 82 3d 61 ff 1d 3e c3 c3 38 3e 94 bb f3 3d
       0.063712314 0.1542945 0.18043427 0.11901012
0003f0 64 b8 99 3e 0c 23 a3 3d 1d 92 f2 3d cb 32 33 3e
       0.3002349 0.07965669 0.11844275 0.17499845

body.0.0.bias f4 [128]
000000 3a 7c 1d bd dc 35 5b be de 8f 91 bd 20 a3 17 be
       -0.03844855 -0.21407264 -0.071075186 -0.14808321
000010 68 ef 17 3d a5 09 de 3d f1 8d df 3e 10 f2 7a 3e
       0.03709355 0.10841683 0.4366298 0.24506402
000020 01 dd ab 3e 26 95 88 bd a7 5c a8 be 6a 82 1c be
       0.3356705 -0.06669073 -0.32883188 -0.15284124
000030 49 94 b9 bb eb 69 48 be 28 3c 33 bd d0 55 0e be
       -0.005663429 -0.19571654 -0.04375854 -0.13899922
000040 e4 b9 a1 3d 2f 3a 2a be e0 e8 69 be ec b7 70 3e
       0.07896784 -0.16623758 -0.22842741 0.2350766
000050 d5 d5 37 be 40 3b a0 3e 73 48 6d 3d 44 cc 94 3e
       -0.17952664 0.31295204 0.05793042 0.29062092
000060 a2 e0 bc bd f7 5c 50 3b b8 b7 48 be 31 6c 11 be
       -0.09222533 0.0031793693 -0.19601333 -0.14201428
000070 d2 21 40 3e 20 14 98 3e 72 33 a7 be 0b f4 53 3e
       0.18762901 0.29702854 -0.32656437 0.20698564
000080 ea 56 a7 3e 1b 1f c3 3c 82 a2 08 bc c4 bd af 3d
       0.32683498 0.023818543 -0.008339526 0.08581117
000090 c8 31 b9 3b a1 69 5d be e8 73 fe bc 63 b7 58 be
       0.0056516863 -0.21622325 -0.031061128 -0.21163706
0000a0 4a 44 96 be fe 33 22 3e 2a 86 2a be e3 01 71 3e
       -0.29348975 0.15840146 -0.16652742 0.23535876
0000b0 b4 08 70 3b e3 d5 9a be 15 b9 81 3e 8b 22 6b be
       0.0036626281 -0.30241308 0.2533652 -0.22962396
0000c0 6d 13 af bc 43 80 05 3e 90 68 f0 3c 0f 56 9f bd
       -0.021371568 0.13037209 0.029346734 -0.07780086
0000d0 3c 3e 3c 3e ee 4a 66 3e 2e 85 47 3e c5 12 ff bd
       0.18383116 0.22489521 0.19484398 -0.12454752
0000e0 41 4f 9a 3d ae ab 89 be 5c 50 81 3e 66 66 79 bd
       0.07534648 -0.26888794 0.25256622 -0.06088867
0000f0 f9 91 f2 3d d4 15 7d 3e 7f 07 93 be 9c 2a 0c 3e
       0.11844248 0.24715358 -0.28716657 0.13688129
000100 ad 26 73 3e 3a 9b 90 bc a2 07 d8 3c a4 d5 ba 3e
       0.23745222 -0.017652143 0.026370827 0.3649112
000110 0f 74 05 3e ff 8b b4 3e 48 83 16 3d 57 d6 88 3e
       0.13032554 0.3526306 0.036746293 0.26726028
000120 01 b7 90 3e 47 6c 11 3e 52 2f d5 3d 4f c4 6d bd
       0.2826462 0.14201461 0.10409416 -0.058048543
000130 33 ac d1 bd 9c 79 93 3e 87 d1 0f 3f 8a 11 03 bd
       -0.102379225 0.28803718 0.5617909 -0.03199915
000140 7d af 79 3d 96 fa 61 3e 8a 07 1b 3e d7 84 d5 3d
       0.060958374 0.22068247 0.15139595 0.10425728
000150 b4 7f ae 3e e3 2a 1c 3e 98 51 2a 3d dc 5f cc bd
       0.34081805 0.15250735 0.04158172 -0.09979221
000160 e6 d9 69 bd 4a 13 34 3e 5c fd 21 3e 87 5f 62 be
       -0.05709257 0.17585483 0.15819305 -0.22106753
000170 4e 5f 6f be 54 1c a1 be 45 13 81 3d 89 21 65 bd
       -0.233762 -0.31466925 0.063025035 -0.055940185
000180 90 5f 1d bd 28 ec b0 3e fd 14 a4 bd f6 96 a7 be
       -0.038421214 0.34555173 -0.08011816 -0.32732362
000190 b3 04 22 be cb 0f 08 3e 59 f2 03 3e b1 9c d9 3d
       -0.15822105 0.13287275 0.12885417 0.1062559
0001a0 9e 76 66 3e db 35 20 3d f1 80 40 3e d2 45 b1 3e
       0.22506186 0.03911386 0.18799187 0.3462358
0001b0 2d b5 d9 3d 2d 0f 01 3f 3a 06 bd 3d 2a 7e 9a 3e
       0.1063026 0.5041378 0.09229703 0.3017438
0001c0 dc a6 fd bd 37 f5 98 3e a8 ed 9f 3e ed 87 8f be
       -0.123853415 0.29874584 0.31236005 -0.2803339
0001d0 1c 1e 07 be c8 91 17 3d bb b1 85 be d8 18 48 bd
       -0.1319508 0.037004262 -0.2611216 -0.048851818
0001e0 83 55 02 3e 94 1c 81 be 12 48 80 be fe 99 de 3c
       0.12727933 -0.25217116 -0.25054985 0.027173039
0001f0 3c 79 b2 bd c1 45 51 bd 64 90 55 be 23 b0 dd 3d
       -0.0871453 -0.051091913 -0.20855862 0.10824611

body.1.0.weight f4 [64, 128]
000000 12 53 87 3d 18 b1 8f bd 08 6b 63 bd 5a b1 2a bd
       0.06607641 -0.070162 -0.055521995 -0.041673042
000010 18 07 85 bd 0b 0d 0a bc ec dc bd 3e d8 77 fc 3d
       -0.06495494 -0.008425961 0.37082613 0.12327546
000020 72 30 6d 3e ed 77 d1 bd c7 68 a4 3d 48 1e 38 3e
       0.23163012 -0.10227952 0.08027797 0.17980301
000030 73 32 1e 3d d8 a6 e1 bd 13 88 1c 3e 66 20 44 3d
       0.03862233 -0.11018151 0.15286283 0.04788246
000040 bd 65 31 3d 10 7b 71 be 40 4e 0c 3d c6 99 52 3c
       0.043309916 -0.23582101 0.034254313 0.012854045
000050 27 81 2b 3c 54 36 29 3d c8 50 06 3e 11 c2 78 bc
       0.010467804 0.041311577 0.13116753 -0.015182988
000060 f0 d9 41 3e ab 8f 45 3e a4 9e ff bc 2b b0 1f 3d
       0.18930793 0.19293086 -0.031203575 0.038986366
000070 c9 5e 8b 3d c3 55 ae 3d a4 85 a9 bd 78 f4 b4 3d
       0.06805188 0.085124515 -0.08277443 0.08835691
000080 9d 75 0b be e5 df a6 3d 0d 6f 19 3d cd 81 00 3e
       -0.13619085 0.08148173 0.037459422 0.12549515
000090 86 85 55 3c 15 c5 b1 bd 7c 64 46 bd 1b 90 c4 bc
       0.013032323 -0.086801685 -0.048435673 -0.023994496
0000a0 9e db 47 3d fd fe 78 bc 47 53 32 3e 79 24 af bc
       0.048793428 -0.015197513 0.1741458 -0.021379696
0000b0 70 7c 04 3c 33 7b b5 3d 54 53 1d 3e 15 d4 0e bc
       0.008086309 0.08861389 0.15363818 -0.0087175565
0000c0 09 96 f6 be 09 92 c4 3e 27 ec b1 3d e4 8d 17 3e
       -0.48161343 0.38392666 0.086876206 0.1480022
0000d0 71 45 e0 3d a2 42 b8 bd d5 dd 9e bd 9a ee 03 bf
       0.10950745 -0.08997084 -0.07757155 -0.5153595
0000e0 0a 89 ec bc 68 98 f7 bc 6c 25 fe 3d 30 90 a1 bb
       -0.028873939 -0.03022404 0.124094814 -0.0049305186
0000f0 bb be 74 3d 5a 22 11 3d b0 74 d4 bb e7 a1 e5 3d
       0.059752207 0.03543315 -0.006483637 0.11212521
000100 dc eb c0 3d b0 b8 bb bd 96 e1 ee 3d ce 52 d0 3d
       0.094199866 -0.09166086 0.11664121 0.10172044
000110 2c 33 95 3d f3 b8 94 3d 81 16 3e bd e3 4c 32 3d
       0.07285151 0.07261839 -0.04640818 0.043530356
000120 ab 4b 67 3c 4d e6 c8 3c 91 62 0f 3e 33 6a 67 bc
       0.014117162 0.024523878 0.14002444 -0.014124441
000130 ff f7 a1 3d 8c 48 9b 3d 27 5c 3e 3d 39 68 ee 3d
       0.079086296 0.075821966 0.046474602 0.11640973
000140 90 43 97 bc 31 34 95 3d 64 cb ca 3d 3b ba 39 be
       -0.018464833 0.07285345 0.09902075 -0.18137448
000150 eb 10 d4 be 5f a7 03 3d ef 4f 91 3d d0 5e 2b bc
       -0.41419157 0.03214204 0.07095324 -0.010459617
000160 36 4e c9 bd b7 fd 4d bd 53 b4 85 bd 77 00 30 be
       -0.09829371 -0.05029079 -0.06528535 -0.17187677
000170 9d 94 fd 3d 90 ed ad bc 99 aa 89 3c 10 84 95 3f
       0.12381861 -0.021231443 0.01680498 1.1680927
000180 e9 5a ac bc 8a 26 4a 3d 5d 80 1a bd c0 18 d0 3a
       -0.021039443 0.04935316 -0.037720073 0.0015876517
000190 8c 2f d9 3d 1b 3c 6e 3e be 7e b3 be 10 a4 9b 3d
       0.10604772 0.23265116 -0.35057634 0.07599652
0001a0 b8 04 e1 3d 33 bf 35 bd 21 d4 b0 be 96 ec 0e bd
       0.10987228 -0.044371795 -0.34536842 -0.034893595
0001b0 15 ca 61 bd 4c 91 39 3e ca e4 d6 bd a2 71 42 3e
       -0.05512436 0.18121833 -0.10492857 0.1898866
0001c0 8c 05 fc 3c e5 e9 98 3d d2 e5 b0 3d 73 93 09 b9
       0.030764364 0.07466487 0.08637585 -0.00013120267
0001d0 46 eb 1e 3e 6d b6 2a 3e f3 56 93 3d 16 c5 a9 bd
       0.15519437 0.16671152 0.071943186 -0.08289544
0001e0 a8 e1 3c 3d e4 8a b3 3c 5d 7f cb 3d b2 ab 7e 3c
       0.04611364 0.021916814 0.09936402 0.015543865
0001f0 94 ee 38 bd c5 51 88 be 09 c1 56 be 5a 10 5b bc
       -0.0451494 -0.26624885 -0.20972075 -0.013370598
000200 63 7d 72 3d f9 d7 36 3d 28 18 11 3d 81 86 9c 3d
       0.05920161 0.04463956 0.035423428 0.07642842
000210 bd e5 9e 3d 26 7b 45 3d f7 4b d4 3b c3 df 7b 3b
       0.07758663 0.048213147 0.0064787823 0.0038432933
000220 c0 55 3b bb 6d ee f7 bc 61 14 72 bd 21 d6 44 bd
       -0.0028585047 -0.030265057 -0.059101466 -0.04805577
000230 d6 fa 65 3d 90 cd 63 bd 9b 38 83 bb c6 99 4e 3d
       0.05614742 -0.05561596 -0.0040045506 0.05043962
000240 fa 34 72 bd b9 6e f0 bc 54 a5 0f 3d 5c fc e8 bc
       -0.059132554 -0.029349672 0.03506978 -0.028440647
000250 46 94 1c bd 18 ca d6 bc 22 55 93 3d 03 a6 61 3d
       -0.038227342 -0.026219413 0.07193972 0.05508996
000260 da c3 2f 3d 56 4b 59 3d 38 dd 4c bc 80 d5 40 3d
       0.042911388 0.05305036 -0.012503915 0.04707861
000270 c9 17 b1 bd 72 a0 bd 3c b5 02 76 bd d2 b2 81 3d
       -0.08647115 0.023147795 -0.060061175 0.063329354
000280 9c d2 b3 3d 60 6c a8 bd 5a fc ab 3b c6 bf 33 bb
       0.08780405 -0.08223796 0.0052485885 -0.0027427538
000290 32 de a8 3c f0 2e 10 3d 02 db 69 3d 49 fb 2a 3d
       0.020613763 0.035201013 0.057093628 0.04174355
0002a0 06 54 48 bd 43 14 87 bd e5 5d d7 3c 6c 29 20 bc
       -0.048908256 -0.065956615 0.02628989 -0.009775501
0002b0 2b ad 83 bd 27 62 99 bd 69 91 69 bd 78 dc 66 3c
       -0.064295135 -0.07489424 -0.05702344 0.01409065
0002c0 40 f5 97 3d ea 5c 31 3d 52 d4 7c 3d ea 08 29 3d
       0.074198246 0.0433015 0.061725922 0.041268267
0002d0 1a ca 32 3d 58 67 06 bd 19 89 0d bd ed 56 0e 3b
       0.04364977 -0.0328134 -0.034554575 0.0021719292
0002e0 be 34 42 3d d2 72 71 bd 2e 26 87 bd d1 d2 8a 3b
       0.04741358 -0.05894739 -0.06599079 0.004236557
0002f0 67 4a 1c 3d 8e 75 ba bc 0b 45 a4 bd 98 00 12 bd
       0.038156893 -0.022761133 -0.080209814 -0.035645097
000300 e1 fe a2 3d e1 73 87 bd 64 e0 db 3b 25 26 7b bd
       0.079587705 -0.06613899 0.006710099 -0.061315674
000310 f2 02 f8 3c 7f 22 03 bd f6 b5 e9 bc c4 68 b4 bd
       0.030274842 -0.03201532 -0.028529149 -0.08809045
000320 2b 20 db bc 22 15 23 3d 24 87 ef bc 51 d1 69 bd
       -0.026748737 0.039815076 -0.029239245 -0.057084385
000330 f2 28 56 bd 3e 54 be bd d0 9a b6 3c 80 c2 69 3c
       -0.052285142 -0.09293412 0.022290617 0.014267564
000340 bf e7 69 3d 87 4c 29 3d 64 ed 3f 3d ac 46 2f bd
       0.057105776 0.041332748 0.046857253 -0.042792007
000350 87 3e 6b bd 0d aa 47 3d 08 8b 7c 3c 11 56 97 3d
       -0.057432678 0.048746157 0.015414007 0.07389463
000360 99 b8 86 bd 8c 50 0b bc 68 88 a4 bd 38 5f 98 bd
       -0.06578178 -0.008503091 -0.0803383 -0.074400365
000370 9f e4 08 3d b8 17 75 bd af 55 9c 3d 92 8b 04 3d
       0.033421155 -0.059837073 0.0763353 0.032359667
000380 d4 f1 49 3d 2d 0c 8e bd ae 5b 0a bd d2 2a 3e bd
       0.04930289 -0.06935916 -0.03377884 -0.046427555
000390 10 9e 65 3d e7 9e 7e bd 7f 55 82 bd 9e 21 1b bd
       0.056058943 -0.06216326 -0.06363963 -0.037873857
0003a0 80 bc 83 3c 19 7a 6d bd f5 01 2e 3d 1c a3 a4 bd
       0.016081095 -0.05797777 0.042482335 -0.08038923
0003b0 c0 a2 93 bb 8d 16 3f bd aa fa 41 3b f5 63 0e bd
       -0.0045054853 -0.046652365 0.002959887 -0.034763295
0003c0 6c f4 a7 bd 07 1c 39 3d 05 ad 5a 3d 14 31 67 bc
       -0.08200917 0.045192745 0.05338766 -0.014110822
0003d0 87 52 30 bd c0 45 56 3b 70 cf 84 bc 8e 61 0b 3d
       -0.043047454 0.0032695383 -0.016212195 0.034028582
0003e0 a8 96 16 3d cc 18 15 3d 00 c2 48 3d f1 6b 8d bc
       0.03676477 0.0364006 0.049013138 -0.017263385
0003f0 60 85 9a bd d2 52 80 3d c2 11 08 3d 40 e3 8e bd
       -0.075449705 0.06265797 0.03322006 -0.06976938

body.1.0.bias f4 [64]
000000 6b 0a 3b 3d 25 bb 8e bd af 65 d6 3d 39 30 a7 3d
       0.045664232 -0.06969289 0.10468613 0.081634946
000010 2f ef 8f bd 44 1a 87 3d 32 b0 a5 bd f3 d6 b2 bc
       -0.070280425 0.06596807 -0.08090247 -0.021831011
000020 1c 63 6f 3d a7 5d a5 3d e5 d3 df 3c 77 07 22 3b
       0.058444127 0.080745034 0.027322719 0.0024723688
000030 3b af a7 3d 1a 88 9f 3c 52 28 57 bd c2 39 bb 3d
       0.081877194 0.019474078 -0.052528687 0.09141876
000040 ac ca 1a 3d 88 08 3b bc 5f 56 09 be 15 24 85 3d
       0.03779094 -0.011415608 -0.13411854 0.06501023
000050 a0 5c 45 3d 83 95 b2 3c 6d 56 2f bd c1 bb 84 bd
       0.048184037 0.021799808 -0.04280703 -0.06481124
000060 2a 8c 10 3d f5 82 20 bd 87 64 16 bd 37 a4 ce bd
       0.03528992 -0.03918739 -0.036716964 -0.10089915
000070 8c 05 b7 bc c7 dd 39 bd 21 9d 8c 3d 59 60 96 bd
       -0.022341512 -0.04537752 0.068659075 -0.073425956
000080 fb b4 e4 3d 3a bc 90 3d 00 12 6f 3d ab 3c 9e 3c
       0.11167332 0.07067151 0.058366776 0.019316038
000090 f7 c6 3a bd 0b ea f0 bd 16 d1 bd bd 8e ab 73 3d
       -0.045599904 -0.1176339 -0.092683956 0.05948978
0000a0 9c 00 24 bd 8d d3 d0 bd 80 28 c0 3d be 36 76 3d
       -0.040039644 -0.101966 0.09382725 0.0601108
0000b0 7e 5c 3c 3e a7 2e 64 bd c0 53 41 bd 3b a8 87 3c
       0.18394658 -0.055708554 -0.04719901 0.01655971
0000c0 08 38 8e bd 8c 0f b8 bd ba c0 39 3d 01 18 ab bd
       -0.06944281 -0.0898734 0.045349814 -0.08354188
0000d0 f5 73 48 bd ba bb 45 3d fc af f2 3c f0 77 e3 bc
       -0.04893871 0.048274733 0.029624932 -0.027767152
0000e0 2d 22 40 3d 1e ec 85 3d 50 70 c6 bc e2 71 ec bc
       0.046907593 0.065391764 -0.024223477 -0.028862897
0000f0 c5 8c 71 3c 4b 5b d6 3d 73 c0 ba 3a f5 27 d9 bc
       0.014743035 0.104666315 0.0014248028 -0.02650831

heads.0.0.weight f4 [1, 64]
000000 b0 8e b2 be 91 17 fd 3c f4 4a f3 3c d1 31 44 3e
       -0.34874487 0.030895026 0.029698826 0.19159628
000010 f4 52 a2 bd bf df d3 bd a0 c3 e6 3b dd 22 ce be
       -0.07925978 -0.103454106 0.0070423633 -0.40260974
000020 a0 1e 00 be be 88 80 bd 04 dd ae 3d 27 2f 98 bd
       -0.12511683 -0.062760815 0.08538249 -0.074308686
000030 ad 20 87 be b2 15 33 bc 1d 53 b7 bd 72 5e 00 3e
       -0.26392117 -0.0109304655 -0.089513995 0.12536028
000040 94 90 4c bd a0 28 cf 3c 99 99 60 3f 7b 0b a5 bd
       -0.049942568 0.025287926 0.8773437 -0.0805883
000050 21 cf 82 3e 36 29 2a bc c7 dc ed 3d 24 aa 0a bf
       0.25548652 -0.010385802 0.116143756 -0.54165864
000060 48 f4 1d bd 92 9e a0 39 a8 c4 06 bd 58 0b 45 be
       -0.038563043 0.00030635722 -0.03290239 -0.19242609
000070 5a f5 7f be 38 ba 94 bd 0e 1c a1 bd aa 40 1f be
       -0.24995938 -0.07262081 -0.07866679 -0.15552011
000080 3a ab bc 3d 8d a6 21 bd ab 02 19 3e 42 aa e8 bd
       0.092123464 -0.039465476 0.14942424 -0.11360599
000090 2d 8b 2c 3e d6 65 0f 3e 90 e0 b2 be 52 98 4a be
       0.16849966 0.14003691 -0.34936953 -0.19784668
0000a0 e1 52 db bc df ff e3 bc 60 f5 26 bd b4 7f 66 3e
       -0.026772918 -0.02783197 -0.04076135 0.22509652
0000b0 2d c0 61 3e e3 49 58 3d dc e4 5f 3d 0a 4a a3 bb
       0.22045965 0.05280484 0.054661617 -0.0049831914
0000c0 02 45 bc 3d 36 45 2a be 72 51 c5 bc b1 d0 d9 bd
       0.0919285 -0.16627964 -0.024086688 -0.10635508
0000d0 43 c2 58 bd 37 56 57 3e 55 df 4c be b6 49 b5 bd
       -0.052919637 0.21028982 -0.2000707 -0.0885195
0000e0 22 90 d2 be fc 6e 17 bd b0 ad 6f bd 48 4b 37 bd
       -0.4112559 -0.036971077 -0.05851525 -0.04474953
0000f0 3a 85 73 be 16 ea 9d be 43 ea 21 3f c3 d4 a5 bd
       -0.2378129 -0.30842656 0.6324808 -0.08097222

heads.1.0.weight f4 [1, 64]
000000 00 4e 16 be a9 d3 ba 3c d6 a4 1f be 92 70 6a bd
       -0.14678192 0.022806006 -0.15590224 -0.05723626
000010 d8 83 22 bd 60 3d fb bd f0 a3 3f bd f7 a5 99 3e
       -0.039676517 -0.12267566 -0.046787202 0.30009434
000020 63 5b 23 3d 09 e9 9a be ac dd a9 3d a9 f5 23 bc
       0.039882075 -0.30255917 0.08294234 -0.0100073
000030 cb 6c 81 3d 7b 9b 77 3e 42 e0 ed bd 6c e3 84 3c
       0.06319579 0.24180405 -0.116150394 0.016221724
000040 32 5d 8f 3d e4 d4 7d 3d 01 1e a8 3e d9 f3 ad bd
       0.070001975 0.061970606 0.3283539 -0.08493776
000050 92 5c b2 3d 3b 66 81 bd 48 d2 eb bd 9a 57 41 3e
       0.08709063 -0.06318327 -0.11514717 0.18881074
000060 39 b9 ab 3e e3 7e 2e 3d 68 4f c0 bc f4 f0 03 be
       0.3353975 0.042601477 -0.023475364 -0.12884885
000070 e4 51 a6 3d 2e 28 23 3d 9d c8 b7 bd 61 fb ff bd
       0.08121088 0.03983324 -0.08973811 -0.124991186
000080 7e b8 89 bd bb 69 76 be dd 50 80 3d 3c 77 0c be
       -0.06724642 -0.2406377 0.062654234 -0.1371736
000090 07 d5 a4 3d b2 fe a9 3e 20 03 f3 3e 09 03 e1 bd
       0.08048444 0.3320213 0.47463322 -0.10986907
0000a0 1a 11 c5 bd 27 a0 f3 3d 84 14 7a 3e 30 46 db 3c
       -0.096224025 0.11895781 0.24421889 0.026766866
0000b0 f1 d9 eb bc f7 56 9d 3d a0 ee cb bb 32 d2 74 bd
       -0.028790446 0.07682603 -0.0062235147 -0.05977077
0000c0 7c 28 dd bd fd 44 dc 3e a6 c0 c9 bd 28 c9 8b 3d
       -0.107987374 0.43021384 -0.09851198 0.06825477
0000d0 26 a1 9f 3c f5 40 fe 3d c2 80 a8 bc d4 82 8b 3e
       0.019486021 0.12414733 -0.020569209 0.2724825
0000e0 f7 2a 38 3d fe c4 ac bd 28 99 89 3c 08 75 19 3e
       0.04496285 -0.08436011 0.016796663 0.1498605
0000f0 9d 4b fa bd 84 1b 6a be ad 99 23 be ce 7f 86 bd
       -0.12221453 -0.22862059 -0.15976591 -0.065673456

heads.2.0.weight f4 [1, 64]
000000 31 e4 9c 3d 4b e9 d7 bd 70 47 e9 3d d0 fe 8c 3d
       0.076607116 -0.10542544 0.11390579 0.06884539
000010 fc 6c 63 bd 2f a8 b5 bd 20 f1 01 bd e4 b0 2e 3e
       -0.055523857 -0.08869969 -0.031724095 0.17059666
000020 e2 05 cb be dd bd 1a 3f 1f 10 db bd 59 f9 b1 3c
       -0.39652926 0.6044596 -0.10696434 0.021725344
000030 66 1a d8 be 17 10 04 3e 88 c2 4d be c1 3f 76 be
       -0.4220764 0.12896763 -0.20093739 -0.24047758
000040 ab 1b b3 be 10 8c af bc d8 26 2d be 63 63 6a be
       -0.34982046 -0.021429092 -0.16909349 -0.22889476
000050 0a 8b 00 3e e5 0b ac bd 48 48 c9 bd b8 b3 ab 3d
       0.12553039 -0.08400706 -0.0982824 0.08383888
000060 58 9c 49 be 32 2e f4 bd e6 59 eb 3d 10 29 cd be
       -0.19688547 -0.119228736 0.11491756 -0.4007039
000070 e7 95 16 3e 0a 5a d7 bd e9 d6 0d bd 14 02 cb be
       0.1470562 -0.105152205 -0.034628782 -0.39650023
000080 ec 43 07 3c fe 6e ee 3e 67 18 49 3e 5e 06 09 3e
       0.00825594 0.46569055 0.19638215 0.13381335
000090 1c 55 1b 3b 20 2b 80 bd 31 92 c3 be 08 90 c7 bd
       0.0023701852 -0.062582254 -0.38197473 -0.09744269
0000a0 31 39 f2 bd 3f c2 d5 bd 59 cc cb be d0 c8 30 bc
       -0.11827315 -0.1043744 -0.39804342 -0.010790065
0000b0 1d 51 c2 3e 0c 92 cd 3d ca f5 a3 3d af ec 24 bd
       0.3795251 0.10037622 0.08005865 -0.04026478
0000c0 e0 97 30 bc c1 e8 fd bd 0f 31 e1 3c 6a 35 8c bc
       -0.010778397 -0.1239791 0.027489213 -0.017115314
0000d0 ce 7d 1a bd 82 c6 6a 3e 24 89 d8 be 25 69 47 3e
       -0.037717633 0.22927287 -0.4229213 0.19473703
0000e0 ee 96 2b 3e 32 3c f5 bd b0 ac 26 bd e7 bf b6 be
       0.16756794 -0.11974372 -0.04069203 -0.35693285
0000f0 1a c4 24 be 7e c7 b6 bd 78 af c4 3c 24 54 78 3d
       -0.16090432 -0.08924769 0.024009451 0.060627118
