saved/MH_DQN/checkpoint_critic_local_MP.pth (torch, 55851 bytes, 11 tensors)

feet.0.0.weight f4 [128, 10]
000000 58 ac 43 bf fc 55 34 3c d0 20 60 bf 25 46 e6 be
       -0.7643485 0.011006828 -0.8755007 -0.4497539
000010 36 b4 d0 3b 8d 6e 9c be 09 ac 3b bb 31 5b a2 3f
       0.006369139 -0.30553094 -0.0028636476 1.268408
000020 66 32 59 be ea 48 a5 bb 6c d0 03 3f e7 d5 f7 be
       -0.21210632 -0.0050440924 0.514899 -0.48405382
000030 a6 a3 93 3e 31 c3 94 be 60 47 bb bc 4f f1 13 bd
       0.2883579 -0.2905517 -0.022861183 -0.0361188
000040 d3 5a 87 be 52 97 73 bf 68 e2 3e 3d 90 4d 96 bc
       -0.2643648 -0.9515277 0.046602637 -0.018347532
000050 7d 67 6a be 21 ef 9e be c3 fe 84 be d7 1e a0 3e
       -0.2289104 -0.31041816 -0.25975618 0.3127353
000060 e8 7e 68 be ca 11 1f 3e 98 8e dd bd 18 a5 b4 3d
       -0.22704661 0.1553413 -0.10818213 0.08820552
000070 06 73 0d 3e 74 eb 4d be 92 3c 99 bd a9 4e 97 be
       0.13813409 -0.2010935 -0.07482256 -0.295522
000080 f5 2a 84 be c0 42 2c bc 40 a1 fd bc 8e e0 14 3e
       -0.25814024 -0.010513961 -0.030960679 0.14538786
000090 83 aa 6c be ee bc 2b 3e da b1 6f 3e 88 11 7b be
       -0.2311192 0.1677129 0.23407689 -0.24518406
0000a0 35 40 b0 3e b5 e3 b2 be b8 9f 02 3f 82 49 db be
       0.34423986 -0.34939352 0.5102496 -0.4282952
0000b0 13 81 56 be 62 09 5c bf ea ed f6 3c d7 a3 93 bf
       -0.20947675 -0.8595182 0.030142743 -1.1534375
0000c0 28 36 23 be 4e 5b c4 3c 73 f0 9a bf 90 4b 16 bf
       -0.15938628 0.023969319 -1.2104629 -0.5870905
0000d0 8d 69 44 bf c3 65 92 3e 51 4b 74 3c 7f ce e4 be
       -0.7672356 0.28593263 0.014910535 -0.44688794
0000e0 62 a8 96 be 30 ff af 3f ea 0a 7c be 1b 78 9d bd
       -0.2942534 1.3749752 -0.24613538 -0.07688924
0000f0 d8 39 e8 bf 54 e8 b1 3d ac 1c d7 bf 7f 4b 55 be
       -1.8142653 0.08686891 -1.6805625 -0.2082958
000100 60 95 15 be c5 44 a6 3e 72 d5 91 3e 4f ef 6e 3e
       -0.14607763 0.32474342 0.28483158 0.23333476
000110 b0 09 5c bd 61 35 03 bb 99 da f0 3e 99 94 69 3d
       -0.053720176 -0.002002083 0.47041777 0.05702648
000120 0d c0 67 bd 28 b4 c3 bd 1d 37 14 bf fb 43 81 be
       -0.05657964 -0.095558465 -0.57896596 -0.25247177
000130 a8 1d f3 be a6 84 b8 bf ac c3 98 be a2 54 f4 3c
       -0.47483563 -1.4415481 -0.29836786 0.029825512
000140 e8 10 80 3e 24 85 88 bd 66 4a 9d 3e 82 e0 0e 3e
       0.25012898 -0.066660196 0.30720824 0.1395283
000150 3d 74 d0 be 70 f8 42 be bd 62 9c bd f1 a4 bf 3d
       -0.40713683 -0.19040084 -0.0763602 0.09357632
000160 e2 0b 68 3e ba 75 9e be dd 25 cb 3f 42 21 1c bf
       0.22660783 -0.30949193 1.587093 -0.6098825
000170 f5 ac 76 3c 42 b6 fa 3d f0 a8 f3 bd bb 4c 3a bd
       0.015055885 0.12241794 -0.11897457 -0.045483332
000180 15 00 58 be 8b ea ed bf 42 27 35 3e f4 93 23 bc
       -0.21093781 -1.8587202 0.17690757 -0.009984005
000190 92 af 8b bf 70 59 13 bd e4 43 a9 3e 32 41 3a be
       -1.0912955 -0.035973966 0.3305961 -0.18188933
0001a0 53 f5 b3 be 54 86 ee be b4 47 be bd c5 68 9a 3f
       -0.35148105 -0.4658686 -0.0929102 1.2063223
0001b0 f4 ae b4 bd dd 76 6c bd 89 e4 28 be 65 c7 77 bd
       -0.08822432 -0.057730544 -0.16493429 -0.06049289
0001c0 ab c2 ff bd 28 13 45 3e 7f 71 84 3d 42 74 43 be
       -0.12488302 0.19245589 0.0646696 -0.19087318
0001d0 8b a0 92 be 1b 4e 98 3e c7 c9 94 3e e5 f9 85 be
       -0.2863811 0.2974709 0.29060194 -0.26167217
0001e0 b9 17 1c 3f 0f fd 5b 3c 04 91 93 3e 93 e7 b3 3b
       0.609737 0.013427033 0.28821576 0.0054902523
0001f0 23 99 97 be 65 79 63 3e d9 63 d9 bd 2e 49 da bf
       -0.29609022 0.22214277 -0.106147476 -1.7053583
000200 9a 2e 90 be 38 76 25 bd 20 62 12 be ec cb 45 be
       -0.28160554 -0.040395945 -0.14295244 -0.19316071
000210 6b 75 9d 3e e5 ed 9c 3e 30 e6 40 be 94 3a 11 3e
       0.30753645 0.3065025 -0.1883781 0.14182502
000220 f2 a4 13 be 0e 6a ce bd 80 e9 4a be 9a 5d 92 be
       -0.1441839 -0.10078822 -0.19815636 -0.28587037
000230 35 62 f0 3d ca ee ca bd 24 8f 8a be fb 23 34 3e
       0.117374815 -0.09908827 -0.27062333 0.1759185
000240 c1 b4 86 be 56 49 99 be a6 f0 07 be 02 c9 d5 bd
       -0.2630978 -0.29938763 -0.13275394 -0.1043873
000250 89 7a 81 3e 12 c8 95 be 09 1b 95 be d8 be 81 3e
       0.252888 -0.29254204 -0.2912219 0.25340915
000260 17 ff 26 be a8 cb 9b 3c db 4f 88 be e2 5c 4e 3e
       -0.16308247 0.01901801 -0.26623425 0.2015262
000270 f1 56 7b be f8 63 5f 3e 00 75 c9 bb 16 9a 76 bd
       -0.24544884 0.21815479 -0.0061479807 -0.06020554
000280 ea 46 b2 be d8 4e a8 3a 40 f4 41 be 43 ba 88 be
       -0.34819728 0.001284088 -0.1894083 -0.26704606
000290 b4 32 6a 3e 00 b4 a5 be 77 e5 77 3e 86 43 54 be
       0.22870904 -0.32363892 0.24208628 -0.20728883
0002a0 52 e7 9a bd f9 20 9a be 91 cb bd 3e 6d 37 f0 bd
       -0.07563652 -0.3010328 0.3706937 -0.11729322
0002b0 d0 5e 85 3f 5c dc 0a bf 85 8f 22 be b3 5e e2 bb
       1.041956 -0.5424249 -0.15875061 -0.0069082617
0002c0 cc de db be b0 b6 9f bf e3 f5 14 be cd 1d 2e 3c
       -0.42943418 -1.2477627 -0.14546923 0.010627222
0002d0 3d 9c 8e 3b 15 ad 08 bd 36 34 80 3e ef db e3 bd
       0.004352121 -0.03336819 0.25039834 -0.111259334
0002e0 f5 e8 4f 3d 3f d3 51 be 29 01 10 3e 14 db 13 bf
       0.050759275 -0.2049074 0.14062943 -0.5775616
0002f0 aa fe b5 bd 45 0e 0c bb 68 73 38 c0 9c 8a 2f 3e
       -0.08886464 -0.002137081 -2.8820438 0.17142719
000300 70 da cd be a3 a6 a5 bd 77 0d 58 3e a2 64 1c 3e
       -0.40205717 -0.08088424 0.21098886 0.15272763
000310 ad 6d 58 3e 86 44 80 3e 3f c3 9c be 15 f5 23 bc
       0.21135588 0.2505228 -0.3061771 -0.010007163
000320 fa 80 ac 3d 44 01 65 3d ac 28 77 be d7 d2 88 be
       0.08423038 0.05590941 -0.24136609 -0.26723358
000330 e7 bf b1 3d 39 65 9b 3d 92 b7 27 3d 03 40 23 3d
       0.086791806 0.07587666 0.04094655 0.03985597
000340 28 43 d7 3d 08 5c ca be b1 4c f5 3f 66 c2 a9 be
       0.10510856 -0.3952334 1.9164029 -0.33156127
000350 a6 2a 83 bf e1 fb 22 bf 9b 25 72 be b8 36 05 3e
       -1.024739 -0.63665587 -0.23647158 0.13009155
000360 68 81 22 bb 50 c2 25 c0 e0 44 57 bc d9 4c 46 bc
       -0.002479637 -2.589985 -0.01313898 -0.012103283
000370 69 1f c1 bf 50 bb cf 3d 97 6b 5a bf 1f a5 90 be
       -1.5087711 0.10143149 -0.8532042 -0.28250977
000380 a1 57 f4 3e 7a d4 d4 be f5 3a f7 3e 34 f0 c4 3f
       0.47723106 -0.41568357 0.48287168 1.5385804
000390 80 a7 89 bb e5 07 b6 3b d0 57 c6 3d 42 a0 fa bb
       -0.0042008758 0.0055551403 0.09684718 -0.0076484988
0003a0 18 6f 2e 3f 64 40 be bd ef f5 61 bd 5c 47 01 3d
       0.68138266 -0.09289625 -0.05516618 0.031562194
0003b0 f6 1f e7 be 38 81 e3 be f7 1c 89 be 01 78 96 3a
       -0.45141572 -0.44434524 -0.2677991 0.0011479856
0003c0 a3 a3 6d 3f ea 3a f7 be 97 b7 2e bf 10 ae 11 3e
       0.92827815 -0.48287135 -0.68248886 0.14226556
0003d0 27 9d 14 be 5a a0 0d bd b5 dd 1a 3e 7c d0 a7 bf
       -0.14513074 -0.03457675 0.15123637 -1.3110499
0003e0 48 c4 a9 3d f2 34 05 bb 7d 4f 03 3f 4e 02 9e be
       0.08289391 -0.0020325747 0.51293164 -0.30861133
0003f0 28 8a 4f bd be 85 fb bd 20 6b b8 be c1 7d 82 3d
       -0.050668865 -0.12281369 -0.3601923 0.06371642

feet.0.0.bias f4 [128]
000000 bc be 78 3d 18 f3 b6 be c0 f1 a6 3b 1a ac 18 be
       0.060728773 -0.3573234 0.005094737 -0.14909402
000010 94 de 0c bf da 45 45 bb 53 7d 5c 3e 05 45 96 be
       -0.5502713 -0.003010145 0.21532182 -0.29349533
000020 6f d4 9b 3e 8e 48 5c be 20 78 70 be 94 16 37 3e
       0.3043551 -0.21512052 -0.23483324 0.17879707
000030 f5 d3 10 be e8 21 89 be 83 af c8 3d e4 ee f0 3d
       -0.14143355 -0.2678368 0.09799101 0.11764315
000040 e5 4e c0 3d 99 62 55 be 6c 79 a8 bc 80 01 27 be
       0.09390048 -0.20838393 -0.020565711 -0.16309166
000050 a7 c4 4a 3c a2 54 26 be 2e 22 fc 3d 09 2a 4a be
       0.012375987 -0.16243222 0.12311207 -0.19742598
000060 60 e7 d1 be d2 3f 31 be 1d 95 95 be 9f 40 41 be
       -0.40996838 -0.17309502 -0.29215327 -0.18872307
000070 cb b4 39 be 73 84 20 3d 64 02 c8 be 0e 4e 7a 3e
       -0.18135373 0.039188813 -0.39064324 0.24443838
000080 84 93 f9 be 5a 22 49 3e a1 f7 d4 be b7 4e d1 be
       -0.48745358 0.1964201 -0.41595176 -0.40880367
000090 88 75 57 be d5 7c cd be f6 f3 36 be 39 94 0f be
       -0.21040928 -0.40134302 -0.17866501 -0.14021386
0000a0 1e 96 2a 3e 7d ee 0c bf 16 f9 77 3c 54 58 17 3e
       0.16658828 -0.55051404 0.01513507 0.14779788
0000b0 e1 3d 5c 3e a0 00 f3 3d 77 3a 83 3e f0 b6 ae bd
       0.2150798 0.118653536 0.25630543 -0.08530986
0000c0 b6 e3 ab 3d 6c 97 a2 bd 43 11 2b 3e 3f 31 ea 3d
       0.08393042 -0.07939038 0.16705804 0.11435174
0000d0 7d e4 94 bd 84 ff 8b be 73 6c cd 3d d6 2e 9b be
       -0.07270143 -0.2734338 0.10030451 -0.3030917
0000e0 f7 ca 6e be 21 81 29 bc 23 ac 69 3c b1 6f 9c be
       -0.23319612 -0.010345728 0.014262232 -0.30553964
0000f0 bb 66 a1 be 22 0c 5e be 9e ad ed bd e2 6c 44 3e
       -0.3152369 -0.21684316 -0.116053805 0.1918216
000100 f3 76 bb bd 9b 74 0a be 58 d1 0e 3e 05 0f 1e 3e
       -0.09153547 -0.13521044 0.13947046 0.15435417
000110 30 c1 66 be 02 21 e9 3b a2 ca f8 be ac 76 b2 be
       -0.22534633 0.0071145305 -0.48592097 -0.34856164
000120 be ee 97 3b 6a c4 06 3e 9b 27 45 3e 30 86 4b be
       0.0046366146 0.13160864 0.1925339 -0.19875407
000130 b5 6e c2 bd 2a a1 22 3e 76 b3 cd 3d 5e 05 3d 3c
       -0.09493772 0.15881792 0.10043995 0.011536924
000140 6e c5 87 be 0c 6e 2c bc 73 d4 d4 bc 21 4e a4 bd
       -0.26517814 -0.010524284 -0.02598021 -0.080227144
000150 f2 cd 84 bd 0f 0f 93 be ff 10 58 3e b2 25 59 be
       -0.064845935 -0.28722426 0.21100233 -0.21205786
000160 5c 82 07 bf 53 85 d5 be cf ec b0 be 71 ea 5a be
       -0.5293329 -0.4170328 -0.3455567 -0.21378495
000170 1b 46 b6 3d 44 31 77 be 63 30 98 be d2 6a e9 3c
       0.0890009 -0.24139887 -0.29724416 0.028493319
000180 6e 1d f5 be 8c 32 67 be b3 49 05 be af 32 14 bc
       -0.47874016 -0.22577876 -0.13016395 -0.009045287
000190 39 7c 83 3d a3 3a 37 3d ab 28 83 be 4c fb 52 be
       0.06420178 0.044733655 -0.25616965 -0.20603675
0001a0 f4 77 cc 3c 29 37 24 be 00 41 4d be 1e 26 26 3d
       0.024959542 -0.16036667 -0.20044327 0.040563695
0001b0 d9 97 80 be dc a2 bc bc 20 67 37 be 25 d7 7c 3e
       -0.2511585 -0.023026876 -0.17910433 0.24691446
0001c0 5c ef 62 3d 82 f0 3f be b3 db 06 3e 15 bf aa be
       0.055404052 -0.1874409 0.13169746 -0.3334891
0001d0 b9 53 8d 3e 86 27 e7 3d ca 34 d6 3d c7 d8 97 be
       0.27602938 0.11286835 0.104592875 -0.29657575
0001e0 26 a4 34 3d bd b7 d0 be b1 70 06 3d 19 11 b5 bd
       0.044101857 -0.4076518 0.032822315 -0.08841152
0001f0 5b fe cf be 4d f9 ea be aa 3f c7 be e2 a2 43 bd
       -0.40623745 -0.45893326 -0.3891576 -0.04776276

feet.1.0.weight f4 [128, 10]
000000 5f 41 06 3e d0 16 1c 3e 1e b0 e0 bb ba 44 80 3d
       0.13110875 0.15243077 -0.0068569323 0.062631086
000010 20 d9 31 3e f4 05 3a 3e b0 ca f3 3c 36 15 c2 bd
       0.17367983 0.18166333 0.029759735 -0.09476702
000020 c0 8e 27 bc 6e 34 d1 bd e6 66 81 be 87 00 00 be
       -0.010226905 -0.10215078 -0.25273818 -0.12500201
000030 97 a8 54 3e 31 3a da be 65 98 b8 bd 0e ca 38 3e
       0.20767437 -0.42622522 -0.09013442 0.18045828
000040 f0 a2 58 be 6e 41 11 be 12 7b 00 3e 29 db 22 be
       -0.21155906 -0.14185116 0.12546948 -0.15903915
000050 5b 24 85 c0 5a 10 c9 3f 1f 2d 04 3f e0 8c b3 3f
       -4.160688 1.5708115 0.5163135 1.4027367
000060 21 46 a9 3d 04 d8 db 3f 87 02 bf bd 95 61 26 3f
       0.08265329 1.7175298 -0.09326654 0.6499265
000070 e4 7b 93 be e3 7a bb bb c9 c9 c9 3e 98 6c 20 c0
       -0.2880546 -0.0057214363 0.39411762 -2.506628
000080 9b 4a 2c bf 69 11 be bf 0d 21 ad 3e e8 9a 97 bf
       -0.6730134 -1.4849063 0.33814278 -1.1844149
000090 84 b6 1f 3e 49 68 97 3f c6 fa 63 3e 91 a3 0c bd
       0.15596968 1.18287 0.22263631 -0.034335677
0000a0 91 d2 6d 40 91 60 0c c0 5b 66 ba be 21 29 30 bf
       3.715977 -2.193394 -0.36406216 -0.6881276
0000b0 d7 e0 ed be 01 ab 24 c0 6d 0d f8 be 0f 6a 84 bd
       -0.46460602 -2.5729373 -0.48447743 -0.064655416
0000c0 47 14 8d 3e 38 c0 2a bd 5c 44 8a 40 03 52 c6 bf
       0.27554533 -0.04168722 4.3208447 -1.5493778
0000d0 3d 82 da bd 35 ee 71 bf b9 9f 0e bf a9 be 06 c0
       -0.10669372 -0.945041 -0.5571247 -2.105387
0000e0 13 ff 03 be ed 62 da be 28 24 5f be 49 00 4a bc
       -0.12890272 -0.426536 -0.21791136 -0.01232917
0000f0 60 70 1f 3e a0 ea 7e bd 63 ed 92 be 6a 02 b2 bd
       0.15570211 -0.062235475 -0.28696737 -0.08691867
000100 fd f5 9b 3e b5 0b 74 be 40 97 2e 3d 23 27 35 be
       0.30461112 -0.23832591 0.042624712 -0.1769071
000110 46 bc 1e 3e 7c cb c3 bd 7a 71 11 3f d9 30 c7 c0
       0.15501508 -0.09560296 0.56813776 -6.224713
000120 c5 b7 bc bf db c3 8d c0 6f 3c 77 be 32 44 c0 bf
       -1.4743582 -4.430158 -0.24144147 -1.5020812
000130 d2 11 b7 be 9d 72 88 be 6c e2 d7 3d 91 99 5d 3c
       -0.35755783 -0.26649943 0.105412334 0.013525383
000140 cb ba c7 3d 64 47 0a 3e 5d 49 21 bd 36 3d d4 be
       0.09752425 0.13503796 -0.039376605 -0.4145295
000150 5f 50 b2 be d6 58 08 3e cb 13 eb bb 45 45 13 3e
       -0.34826943 0.13315138 -0.0071739904 0.14381893
000160 14 ff 70 be 20 d5 01 bd d1 4c 8b be 80 1d 86 be
       -0.23534805 -0.031697392 -0.27207044 -0.26194382
000170 10 c1 0a 3e b0 37 5b be 1b 9b 95 3e a4 1a ed 3d
       0.1355021 -0.21407962 0.292199 0.11577347
000180 be 61 52 3e da 81 6b be 1e 3f f0 bd 3d 17 2a be
       0.20545098 -0.22998753 -0.11730789 -0.16610427
000190 22 2d 5e 3e d6 34 4d be 52 4f 64 be 32 78 f3 bd
       0.21696904 -0.20039687 -0.22295883 -0.1188816
0001a0 28 58 9e 3d d8 b8 4e be 2e 19 20 3e 0c b4 90 be
       0.07731658 -0.201877 0.15634605 -0.28262365
0001b0 b0 0c 84 bc 19 40 16 be d3 42 6b c0 12 f3 cf 3f
       -0.016119331 -0.14672889 -3.6759536 1.6246054
0001c0 b4 11 26 be 99 be 3b 3f 41 63 b4 3d 66 14 ec 3f
       -0.1621769 0.73337704 0.08807994 1.8443725
0001d0 9d 53 45 be e3 4e d8 3d 08 94 6d bd 38 b4 6c bb
       -0.19270177 0.105619214 -0.0580025 -0.003611816
0001e0 c2 b1 15 3e 36 5b 05 3e 2c be 3b 3e 70 18 6a bd
       0.1461859 0.13023075 0.18334264 -0.05715221
0001f0 31 35 8a be 8e f4 69 3e 84 68 f3 3d 55 74 73 be
       -0.26993707 0.22847196 0.11885169 -0.23774846
000200 e8 8a 87 be 88 21 a3 bd e8 bf 74 be 2c 5f 9f be
       -0.26473165 -0.0796538 -0.23901331 -0.31127298
000210 56 fa 53 be c0 7d a2 bd 32 6a 08 3e 2c c4 84 be
       -0.20700964 -0.07934141 0.1332176 -0.25930917
000220 6e e4 54 3e 53 34 92 be a5 c1 03 be 04 45 9e bd
       0.20790264 -0.28555545 -0.12866838 -0.077280074
000230 f5 b1 36 40 90 e4 c4 bf 5f 27 83 bf ad 88 df bd
       2.8546116 -1.5382252 -1.024639 -0.10914741
000240 01 54 fd be ce c5 0c c0 07 68 7b be fd 81 af bf
       -0.49478152 -2.199573 -0.24551402 -1.3711544
000250 e0 55 08 bc f6 2a 04 bd b1 13 a5 3d 4e 21 18 3e
       -0.008321255 -0.032267533 0.080603965 0.14856455
000260 b9 8e e5 be bb 09 61 3d 42 ff 7f be f4 5b e9 3d
       -0.4483545 0.05494092 -0.24999717 0.11394492
000270 08 28 36 be 16 d8 13 3c 83 cc 09 be f4 2a ec be
       -0.17788708 0.009023687 -0.13456921 -0.4612652
000280 ea c1 53 3f 93 40 53 bf bc de b2 3e 2f cb 48 3e
       0.82717764 -0.8252041 0.34935558 0.19608758
000290 81 d1 c1 3d 46 97 5c be bf 29 a5 be fd 39 28 3f
       0.09463788 -0.21542081 -0.32258412 0.65713483
0002a0 4f 0c 6c be f5 63 56 bd 30 5d 47 3e 4e 28 1a bd
       -0.2305157 -0.05234142 0.19469142 -0.037636094
0002b0 74 2b 6a 3e 37 86 4f 3e 85 e7 cd be f5 ac 0b be
       0.22868139 0.20266043 -0.40215698 -0.13640197
0002c0 a1 11 68 be fc 12 e6 bd 00 04 bd bb 9f fa 35 bd
       -0.22662975 -0.1123409 -0.005768299 -0.044428464
0002d0 c5 60 0b 3f d4 64 48 3f 15 67 9b bf c7 55 83 3f
       0.54444534 0.7827885 -1.2140833 1.0260552
0002e0 f1 20 90 be 89 99 94 be a4 c6 c1 3c 9a 8c 22 be
       -0.28150132 -0.29023388 0.02365429 -0.15873948
0002f0 2e 43 38 3e f0 c7 e0 bc 8e 4f 30 3d f7 cb 90 3e
       0.17994377 -0.027439088 0.04304462 0.28280613
000300 f1 1a 84 be 74 11 65 be b4 e1 c4 3d 00 ae 88 3a
       -0.25801805 -0.22369939 0.09613362 0.0010427833
000310 e1 6b 91 3e 0b 46 ba 3d 64 27 ff 3d b3 55 6c be
       0.28402618 0.09095391 0.12458685 -0.23079567
000320 5a 15 57 be 80 c8 ed 3d f0 a1 b8 3c 76 60 e6 bd
       -0.21004239 0.11610508 0.022538155 -0.11248867
000330 e0 b8 44 be e9 58 8c be 5d c0 85 3e 30 b1 85 bc
       -0.19211149 -0.27411583 0.26123324 -0.016319841
000340 84 2b 81 be 90 c0 56 bd c0 3d 22 be 03 13 31 be
       -0.25228512 -0.052429736 -0.15843868 -0.17292409
000350 94 59 0d be 27 a0 5a 3e b8 2a c0 bd c0 41 4a be
       -0.13803703 0.21350156 -0.09383148 -0.19751644
000360 d6 23 c8 bd 99 e1 01 3e 01 0a 97 be 58 10 32 be
       -0.0977246 0.12683715 -0.2949982 -0.17389047
000370 bf 60 88 be 40 ad 72 3b 55 09 37 3d d2 cd 2d bf
       -0.2663631 0.0037029535 0.044686634 -0.6789218
000380 2c 30 18 be f8 c2 b2 be 5e d3 99 be 08 f3 e2 3d
       -0.14862126 -0.34914374 -0.30044073 0.11081511
000390 99 08 3e be d2 e6 b2 bd c0 be 55 c0 6a 59 92 3f
       -0.18557967 -0.08735432 -3.3397675 1.1433537
0003a0 42 67 15 3f 6d 29 1b 3f 8f 3f 9c be a4 22 86 3f
       0.58360684 0.60610086 -0.3051724 1.0479321
0003b0 51 f2 80 3d e0 3a fd 3e 48 a4 de 3d b4 1b 4e bb
       0.06296218 0.4945898 0.10871178 -0.0031449618
0003c0 a7 c5 a5 c0 ed ce 2a 40 75 bd 65 be 4b 8b 8c 3f
       -5.1803775 2.6688797 -0.22435553 1.0980009
0003d0 2f 8e 92 bd 2e 8e 21 40 ba be e0 bd 66 4b a7 bf
       -0.071560256 2.524303 -0.10973878 -1.3069885
0003e0 28 d0 f7 3d 7e 9a 74 3d f8 4c a1 bd 58 67 98 bc
       0.121002495 0.059717648 -0.07876009 -0.018603966
0003f0 68 96 ad bd 4f ed 3d 3c 71 cb 67 be 49 af d4 3c
       -0.08475953 0.011592223 -0.226362 0.025962489

feet.1.0.bias f4 [128]
000000 7a 1c 80 be f3 93 7f 3e 12 a0 17 3e cf 1f c8 3e
       -0.25021726 0.24958782 0.14807156 0.39086768
000010 10 81 b5 be 02 75 c7 be 20 e6 c2 3c 73 2d 8b 3d
       -0.3545003 -0.38956457 0.023791373 0.06795778
000020 0a 69 22 be c3 91 26 be 80 54 1f 3b bf 8c c0 be
       -0.15860382 -0.16266541 0.002431184 -0.3760738
000030 00 46 75 bb f3 79 93 be 2f 27 21 bf 54 18 b1 bc
       -0.0037425756 -0.28803977 -0.62950414 -0.021618046
000040 86 d7 3c 3f a8 f9 c0 be 91 03 b0 bd 54 02 8c bd
       0.7376636 -0.37690473 -0.0859443 -0.068363816
000050 8c 18 c2 3d 00 87 d1 bd 65 66 16 3e 6c a6 6f 3c
       0.09477338 -0.10230827 0.14687498 0.01462708
000060 09 7e 0d bf 46 66 f7 bd 6e 67 7e 3e 8f 7e b8 3d
       -0.5527044 -0.12080054 0.24844143 0.09008514
000070 55 0e a1 be 88 39 ff 3d 72 13 72 3e 4f c3 21 be
       -0.31456247 0.12462145 0.2364023 -0.1579716
000080 d2 7b da be 40 bd 87 3c 3a e7 c2 bd d0 c6 cf 3c
       -0.42672592 0.016569734 -0.09516759 0.025363356
000090 04 3f eb bd 17 62 35 be 57 18 28 3e 38 02 5e bf
       -0.11486629 -0.177132 0.16415535 -0.86722136
0000a0 46 44 69 3d 6f 96 cd 3d 00 59 f4 bc e5 00 cc 3e
       0.056949876 0.100384586 -0.029827595 0.39844432
0000b0 f4 f5 39 be b0 ca 35 3e ec 1e ed 3d 00 a3 57 be
       -0.1816023 0.177531 0.115781635 -0.21058273
0000c0 72 fa b3 be 0e a2 98 3d ec b1 13 bd 63 29 80 be
       -0.35152012 0.074527845 -0.03605835 -0.25031576
0000d0 08 75 3a 3d 0d 27 b7 3d ce d5 81 be b3 aa 93 be
       0.045521766 0.08942995 -0.25358433 -0.2884117
0000e0 a0 f9 bc 3c 72 19 37 3e 03 6d 91 be 15 ba e6 be
       0.02306825 0.178808 -0.28403482 -0.45063844
0000f0 44 0b 00 bf 55 92 28 bc 05 3f df 3d e6 ed 31 bf
       -0.5001719 -0.0102887945 0.10900692 -0.6950363
000100 b2 ca 20 bf 6f b4 10 3e 12 7e 2a 3e f4 eb 07 3e
       -0.6280929 0.1413133 0.16649655 0.13273603
000110 62 5b b9 bd 6c 79 31 be 6f 75 88 3e 71 50 1e 3e
       -0.09050633 -0.17331475 0.26652095 0.15460373
000120 a9 c9 95 3e 39 3e 9d be 28 41 17 be 0d b9 93 be
       0.29255417 -0.30711535 -0.14770949 -0.2885212
000130 a6 35 51 bf 92 5f cb 3d 65 6f 17 3e d4 53 21 3e
       -0.81722486 0.09930338 0.14788587 0.15754634
000140 4f 5a 33 bf 13 51 df 3d 0e 03 53 bf 12 a6 6f bd
       -0.70059675 0.109041356 -0.82426536 -0.058507986
000150 23 9e f3 3d 4c 05 a6 3e 59 a4 73 bf 7c e8 dd 3d
       0.118953966 0.32425916 -0.9517265 0.108353585
000160 2c 9c e0 bc 00 10 3c bc 33 17 b2 3e f7 22 d6 3d
       -0.027418219 -0.011478424 0.34783325 0.10455888
000170 cf 61 77 be da 7d 09 3d 17 bc c7 be 76 62 70 3d
       -0.24158405 0.033567287 -0.3901069 0.05868765
000180 fe a5 96 be 34 9a 5d be 64 fb 2d bf d8 3f e6 bd
       -0.29423517 -0.21640855 -0.67961717 -0.11242646
000190 bf 59 79 3e 34 74 75 be 9c ab f1 bd b8 39 06 bf
       0.24350642 -0.23970109 -0.1180031 -0.5243182
0001a0 8c 09 f3 bb f5 4c 2a bf 18 4f cd bd c0 4f b2 3d
       -0.0074169096 -0.6652368 -0.100248516 0.08706617
0001b0 ac cf 8e bd 10 2e 24 3d cb 38 04 bf b6 5a 0e bd
       -0.06973204 0.04008299 -0.5164916 -0.034754477
0001c0 f6 80 ae be 01 54 c8 bd fc 7b 30 be 18 d7 7b bd
       -0.34082764 -0.097816475 -0.17234796 -0.061484426
0001d0 7a d9 21 3d 62 8a 57 bd 4a 31 83 3d d0 11 72 be
       0.039514042 -0.052622207 0.064058855 -0.23639607
0001e0 d5 44 4b 3c d1 5b 7b 3e 2f cf 4f be e0 27 39 3e
       0.012406548 0.24546744 -0.20293878 0.18081617
0001f0 7b 04 b7 be f1 b1 6d 3c b1 0a 19 3e 2a 1f 61 be
       -0.35745606 0.014507757 0.14945485 -0.21984544

feet.2.0.weight f4 [128, 10]
000000 7b 60 39 be e3 0d 74 be a0 c6 2b be 12 4f 56 3e
       -0.1810321 -0.23833422 -0.16774988 0.209286
000010 06 ca 96 3e 2d da d8 3b 3d ec 12 be 06 15 b1 bd
       0.29451007 0.0066178055 -0.1434793 -0.08646588
000020 4f 9e 8a 3e 86 1b 5e bf 27 4e 42 be c8 12 04 3d
       0.27073905 -0.8676075 -0.18975125 0.032244474
000030 14 bb 99 bd 6e bc 10 3e cf 2e 79 be a6 25 96 be
       -0.075063854 0.1413438 -0.24334262 -0.29325598
000040 c8 0c 22 3d db 3c 97 be 58 98 9c be 3e ae a1 be
       0.03956297 -0.29538617 -0.3058498 -0.3157825
000050 61 dd 9c be 4a f9 30 bf db cb 08 3e 28 10 8f bc
       -0.3063765 -0.69130385 0.13359015 -0.017463759
000060 6a 55 b0 3b ba 96 6e 3d 1a 4c a8 bd da 70 d8 be
       0.005381276 0.058249213 -0.0821764 -0.422736
000070 28 3c e1 3d b4 6e ac bf 6e 4e 1b 3e 8e 70 7e be
       0.10997802 -1.3471284 0.15166637 -0.24847624
000080 e9 73 96 be 23 92 98 be 72 2e 41 be 94 47 89 be
       -0.29385307 -0.29798993 -0.18865374 -0.26812422
000090 c5 dd 93 be 22 38 25 3e 4c f0 2e 3e 17 a5 0c be
       -0.28880134 0.16134694 0.17083853 -0.13734852
0000a0 fd 1d 95 be be 81 0f be 6b f2 87 be ac aa df 3d
       -0.29124442 -0.14014336 -0.26552138 0.10921225
0000b0 7d 93 87 be 80 0d 40 3c 14 6c 98 3d 40 9c 60 be
       -0.26479712 0.011721969 0.07442489 -0.21934605
0000c0 58 d7 1d 3d 1a ce 46 be 9b 07 a1 3e 03 5c 31 3f
       0.038535446 -0.19414559 0.31451115 0.69281024
0000d0 1a 7a 85 c0 bd 94 e1 3d e9 3b 25 3e c4 2c 00 bf
       -4.171155 0.11014698 0.16136135 -0.50068307
0000e0 33 4b e3 bd 82 a9 0b 3e 16 55 3f 3e 21 c5 01 bd
       -0.110983275 0.13638881 0.18684801 -0.031682137
0000f0 d4 04 8e 3f 85 7d 09 3f 9f 9c 8d c0 cc 9b 0b 3e
       1.1095223 0.5370715 -4.425369 0.1363365
000100 71 b4 2c 3f 01 3b 2a 3f 5d 64 43 3f 18 ce 63 be
       0.6746283 0.6649628 0.7632502 -0.22246587
000110 fd 5a 2b be a2 5a ba bd 67 84 0f c0 93 19 61 bd
       -0.16733928 -0.09099318 -2.2424562 -0.05495603
000120 91 d3 ba be 70 44 dc bd 63 24 b1 be 0a 81 f2 be
       -0.36489537 -0.10755241 -0.34598073 -0.47364074
000130 6c a2 bd be 4b 36 d8 bf 7b 4e 8b 3e 07 24 8c 3b
       -0.3703798 -1.6891569 0.27208313 0.0042767557
000140 8b a7 1b bf dc 3c e3 be 8d 0f ab 3f fd c8 eb bd
       -0.60802525 -0.4438237 1.3364121 -0.11512945
000150 99 50 ea be 07 7e 1a be 60 24 18 be b7 a7 7d bf
       -0.45764616 -0.15087138 -0.14857626 -0.9908404
000160 2e cd 37 3e 1e 2f 98 ba 92 f3 2c bf cf ac 8c bf
       0.17949364 -0.0011610722 -0.6755916 -1.0990237
000170 99 4c 7e 40 1c 9f 28 be 26 ee 0d be 41 59 ff bd
       3.9734251 -0.16466945 -0.13860378 -0.12468196
000180 02 f8 c8 be 6c 73 94 bf 34 0e 04 3e 85 17 15 bd
       -0.39251715 -1.1597724 0.12896043 -0.036399383
000190 ea c0 46 3e fb e8 94 be 50 72 a7 3c 1e ac 3e 3e
       0.19409528 -0.29084 0.02044025 0.18620345
0001a0 84 fd 01 be ba 36 3e 3e 1c 4e 9e 3d c4 b4 97 bd
       -0.12694365 0.18575564 0.07729742 -0.07407525
0001b0 d5 fa 77 be d7 1a a1 be e8 fd 01 be 68 03 20 bd
       -0.24216779 -0.3146579 -0.12694514 -0.03906575
0001c0 13 59 76 3e 49 38 66 be f8 73 31 3e f9 39 ee 3d
       0.24057417 -0.22482409 0.17329395 0.11632151
0001d0 d3 bf a9 bd 78 64 60 bd 6a a3 47 3e d5 71 3b be
       -0.08288541 -0.054783314 0.19495931 -0.18305142
0001e0 f2 bc aa 3c fa 7b c0 bd 6d eb 18 be 67 fc b2 bd
       0.02084205 -0.09398647 -0.14933558 -0.08739548
0001f0 d3 2c 26 3e a3 10 ba 3d 0e eb 38 38 b8 c1 cc 3d
       0.16228037 0.090852045 4.408793e-05 0.099978864
000200 2d 47 62 be 7b 24 2c bd b2 40 8a be 35 bd 3c bf
       -0.22097464 -0.042026978 -0.27002484 -0.73726207
000210 89 9e 40 3e 4e b5 8a 3d 01 9f 15 3d 15 33 f2 3d
       0.18810476 0.067728624 0.03652859 0.118261494
000220 32 b2 34 3e 1d 6d 5e be e2 68 8a bd 26 7a 8e bf
       0.17646101 -0.21721311 -0.06758286 -1.1131027
000230 94 56 b9 3e 4d ee 81 be bb be e6 3b ba f6 00 3f
       0.36198866 -0.25377122 0.00704178 0.50376475
000240 a1 8f 57 3d 0d 30 4d bf 61 15 df be 6e e6 48 3e
       0.05262721 -0.80151445 -0.43570998 0.19619152
000250 9d f1 86 3e 19 57 cd bc 98 23 07 3f 62 fb ca 3e
       0.2635621 -0.025065945 0.52788687 0.39644915
000260 84 f4 76 c0 27 15 86 bc aa 76 6c 3e 36 58 0a bf
       -3.858674 -0.016367508 0.23092142 -0.5404085
000270 77 d7 7e 3e 7d 72 3e 3f e0 99 26 3d a1 33 cd ba
       0.24886881 0.74393445 0.04067409 -0.0015655645
000280 99 6d 90 3d b8 cf b4 be 57 ca 14 3e f9 6e 88 bd
       0.07052154 -0.35314727 0.14530312 -0.06661791
000290 f9 27 56 be d4 9a 72 be c6 cc 40 3e e4 3e e4 bd
       -0.20913686 -0.23691875 0.18828115 -0.11144808
0002a0 74 07 2e 3e 94 0b 0e be 6c 31 70 3f f9 23 38 3f
       0.1699503 -0.13871604 0.9382541 0.7192989
0002b0 3d 74 9b c0 7d 35 d5 be a2 56 43 bd 90 20 74 3d
       -4.8579392 -0.4164237 -0.04769004 0.059601367
0002c0 76 21 06 3f f4 40 65 be 80 bb bd 3c 49 fd f1 bc
       0.5239481 -0.22388059 0.023160696 -0.029539721
0002d0 5f 33 18 3d eb d5 00 bf 34 51 3d be 2d 8d 28 be
       0.037158366 -0.5032641 -0.18488008 -0.16460104
0002e0 72 f3 42 3d 9f 05 d9 3d 97 1c e6 3d bb 6e 1c 3e
       0.04759545 0.10596775 0.11235922 0.15276615
0002f0 68 16 28 3e 12 8f 48 bf a6 69 9d be ef ba 80 bd
       0.16414797 -0.7834331 -0.30744666 -0.06285655
000300 4a b9 4a 3e bd fb 28 3d 96 ee 2c 3e ac 8d a8 3d
       0.19797245 0.0412557 0.16887888 0.08230147
000310 e1 eb ac bb 13 15 ae be 00 e2 b6 ba c2 e3 f9 bd
       -0.0052771424 -0.34000453 -0.0013952851 -0.122016445
000320 48 29 7c bd d0 aa 46 be 00 2e 1c ba 15 22 94 be
       -0.061562806 -0.19401097 -0.0005957782 -0.28932253
000330 40 b0 c1 bb b8 eb 05 3d 08 86 70 be a6 fa 63 be
       -0.005910903 0.032695502 -0.23488629 -0.22263584
000340 f1 64 97 3e d9 3a 94 be b7 b7 56 be ba 5f 83 bc
       0.295692 -0.28951147 -0.20968519 -0.016036857
000350 0d 6f 51 3d 9a f0 df 3e d9 05 f6 3d 7f da 48 3e
       0.051131297 0.43738252 0.12012834 0.196146
000360 84 29 c0 bd 36 8a f5 3c 20 0f 7a bd 38 12 8a bb
       -0.093829185 0.02997313 -0.06104958 -0.0042135976
000370 86 ad b1 be c8 89 91 be ca f3 21 be 27 7b e0 3d
       -0.347027 -0.2842543 -0.15815654 0.109609894
000380 7e d5 89 3d 25 63 7a be 87 e0 f8 bb 10 73 15 3e
       0.067301735 -0.24451883 -0.007595125 0.14594674
000390 5e 0c 8d bd 5c ce 0a be 11 2f 6c be f2 69 76 be
       -0.068871245 -0.13555282 -0.2306483 -0.24063852
0003a0 22 7f 12 be 7e 28 56 be ad c8 24 3e 10 e0 8d bd
       -0.1430631 -0.20913884 0.16092177 -0.06927502
0003b0 e0 31 04 be ba e1 9b 3d 7c ff a0 3d 20 5c 1f be
       -0.12909651 0.07611413 0.0786123 -0.15562487
0003c0 46 f1 9b 3f 17 29 e7 3e b6 44 bb bf de 6b 02 bd
       1.2183006 0.45148537 -1.4630344 -0.03184115
0003d0 79 1b 84 be 91 10 ff bd 4a 12 39 be 0e 13 ce be
       -0.2580221 -0.12454332 -0.18073383 -0.40248913
0003e0 ce 7a b3 bd 01 c5 ca ba 7b 55 a9 bf 3f 78 ab bf
       -0.087636575 -0.0015470089 -1.3229212 -1.3396071
0003f0 dd 7b 7f 40 5d 06 29 bf ce a7 0a be 93 ca e4 be
       3.991935 -0.66025335 -0.13540575 -0.44685802

feet.2.0.bias f4 [128]
000000 0b 21 df 3b 4a 2b 7f 3e ff e8 8f 3e 42 5f 85 be
       0.006809359 0.24918857 0.2810745 -0.26049238
000010 a7 b2 93 3e 8a 3f 0e 3d 1f 27 89 3e a2 4e 15 bf
       0.28847238 0.034728564 0.2678766 -0.5832311
000020 66 4a a7 be 0f a2 b3 3d e7 da a1 be 47 a8 42 be
       -0.3267395 0.087711446 -0.31612322 -0.19009505
000030 a7 da 86 be 0a a4 47 be 51 3a 6b be 27 70 b2 be
       -0.26338693 -0.1949617 -0.22971465 -0.3485119
000040 df 05 ef bc 96 11 71 be 63 70 3b be c7 74 10 be
       -0.029177604 -0.23541865 -0.18304591 -0.14107047
000050 30 b0 35 3d 11 cb a7 be f3 de f4 3d e4 63 7c 3d
       0.04435748 -0.32772115 0.11956587 0.0616187
000060 4d 2d eb bd 0a a0 21 bf 82 07 27 be 72 6c bf be
       -0.1148325 -0.63134825 -0.16311458 -0.37387425
000070 d9 f5 83 bd fc 0a 33 3e 36 08 6c be 89 69 1b be
       -0.06443376 0.17484659 -0.23050007 -0.15176977
000080 ce 14 6b be 22 bf 1a bf 25 3e 5d bd b0 27 0e 3e
       -0.22957155 -0.60447896 -0.054014344 0.13882327
000090 3e ab ba be f3 b8 ec bc 6d 17 dd bd 7f e7 24 be
       -0.36458772 -0.028896784 -0.10795484 -0.16103934
0000a0 d7 7e ed be 48 12 9e 3d cb b2 75 be e7 01 64 3d
       -0.46385834 0.077183306 -0.23993985 0.055665877
0000b0 1b 8e 43 be cd df bc be 6c 32 4f 3d e6 c5 4b bf
       -0.19097178 -0.36889496 0.050585195 -0.79598844
0000c0 87 6b 3e be f9 3c 05 3d 4a 58 94 be ab 5c cb 3d
       -0.18595706 0.03252885 -0.2897361 0.099297844
0000d0 3b 6e 37 be ec 71 5b be 81 cc 6a be b7 0d a5 be
       -0.17913143 -0.21430176 -0.22929575 -0.32237026
0000e0 b0 57 95 3c 86 08 f0 3c ea e1 c3 be f1 04 9e be
       0.01823029 0.02930094 -0.38258296 -0.30863145
0000f0 7a 8b 9b bc 07 33 fe bd 6e d1 7a be c8 50 a3 be
       -0.018987406 -0.124120764 -0.24493954 -0.3189757
000100 d4 50 13 bf d6 8c 40 3e 4a 63 4f be 93 e0 80 3e
       -0.5754521 0.18803725 -0.2025272 0.25171337
000110 24 1d 28 bd 1e b1 1b 3d f5 13 46 be 48 db 16 3e
       -0.041043416 0.03801071 -0.1934355 0.14732087
000120 ec be e2 3d 3c 86 e0 3c 11 87 03 be f7 18 bf bd
       0.11071572 0.027407758 -0.12844492 -0.093309335
000130 9f 9b 35 bd a7 92 20 3e d1 ba 36 be 64 af 50 3e
       -0.044337865 0.15680943 -0.17844702 0.20379406
000140 ff cd b7 bd 36 8f 0b bf 0b 23 5e be ed 85 90 be
       -0.089748375 -0.545154 -0.21693055 -0.28227177
000150 72 a5 7b be b8 49 60 3e e2 d3 f7 bc 9c a1 bf be
       -0.24574831 0.21903121 -0.0302524 -0.37427986
000160 06 4f a3 bd 6c 3b 4f 3e 80 76 85 bc a4 25 21 bc
       -0.07974057 0.20237511 -0.016291857 -0.009835634
000170 bf 51 87 be 7f a2 2e 3b bb df 0c 3d 76 e3 5d be
       -0.26429555 0.0026647148 0.034393054 -0.216688
000180 59 f4 86 be 91 83 fa be 34 d1 ac bc b8 e2 1f be
       -0.26358297 -0.48928502 -0.02109585 -0.1561383
000190 8c c6 32 3e bf 74 30 be cc b3 79 be f9 e1 c6 3d
       0.17458552 -0.17232035 -0.24384993 0.097110696
0001a0 a5 5f 04 be 54 b3 ec bc 92 08 bc be 57 aa 20 3e
       -0.1292711 -0.028894104 -0.3672529 0.1568998
0001b0 7d f2 63 be 7c 5f dd bd 9f 00 52 bd f1 67 43 be
       -0.2226047 -0.10809228 -0.051270124 -0.19082619
0001c0 e0 52 82 3d da 19 0d 3e 02 a1 34 be 08 96 76 bc
       0.063634634 0.13779393 -0.17639545 -0.015050419
0001d0 38 43 01 3e 4f 6a 80 be 2a ca 0b bd ce 47 c0 be
       0.12623298 -0.25081107 -0.034128346 -0.37554783
0001e0 ad 39 53 bf 60 2b 09 bf 80 10 e1 3b 3c 40 a3 3d
       -0.8250988 -0.5358181 0.006868422 0.07971236
0001f0 62 b4 0e bf 3a f6 5b 3e 37 81 1d bf 00 2e 9a be
       -0.5574399 0.21480647 -0.6152529 -0.3011322

body.0.0.weight f4 [64, 128]
000000 ef 45 2a bd 75 24 87 bd 93 97 9a bd 90 24 5a bc
       -0.0415706 -0.065987505 -0.07548442 -0.013314381
000010 16 ea 8c bd 9f 8b a8 bd 35 f6 92 be d2 c0 02 be
       -0.06880586 -0.082297556 -0.28703466 -0.12768868
000020 18 da 83 3d e8 0f a9 3c e4 8b d7 bc 0a 71 62 3c
       0.064380825 0.020637468 -0.026311822 0.013820896
000030 1c 9a 77 3c d2 7c 1e 3d c9 ba 92 bd 54 14 2f 3d
       0.015112426 0.038693257 -0.07164533 0.042743996
000040 90 81 84 bd 59 7e 27 be 74 fd 07 bd c8 4c 42 bf
       -0.064700246 -0.16356792 -0.033200696 -0.7589841
000050 9c 10 8c bb 32 49 8d b8 a4 b2 d3 be c8 c0 a8 bd
       -0.004274441 -6.7370376e-05 -0.4134723 -0.08239895
000060 8c 04 68 bd d5 41 b5 bd 03 ad 03 3d bc a9 09 3c
       -0.05664496 -0.08850447 0.03214742 0.008402284
000070 7a ca 70 be 46 ba 18 bc 0b ab 20 bd eb 17 f8 3d
       -0.23514739 -0.009321755 -0.03922562 0.12113937
000080 65 b8 22 be 42 fc 79 be 34 d0 cb bd 31 48 9f bd
       -0.15890653 -0.24412635 -0.09951821 -0.07777441
000090 17 d7 46 bd 0e 1f 6e 3d 4d e6 a3 bd 50 06 d8 bb
       -0.04854497 0.058135085 -0.08002911 -0.0065925494
0000a0 0a 29 7e be 60 b2 13 be 9c 08 41 be f8 1a 37 3d
       -0.24820343 -0.14423513 -0.1885094 0.044703454
0000b0 ea 23 cf 3d 59 24 12 be 1f bf cd bd ce db 0c bd
       0.10114272 -0.14271678 -0.10046219 -0.03438931
0000c0 c7 83 03 3d 04 f9 c9 bd d3 e3 c2 3d 84 34 a6 3d
       0.032108095 -0.09861949 0.0951611 0.08115485
0000d0 a2 83 21 be 94 b8 86 3c 19 cf 7f bd 44 a4 50 3c
       -0.1577287 0.016445436 -0.062453363 0.0127344765
0000e0 6a 1e 1a 3d 43 b9 14 be 27 3c 3b be 90 c2 81 be
       0.03762666 -0.14523797 -0.18284665 -0.25343752
0000f0 98 c5 c1 bd 55 9a ad 3b 26 57 4e 3d 9a 8b 1f bd
       -0.09461516 0.005297939 0.05037608 -0.038951494
000100 fc 4b 0b be 9b 71 44 be 98 72 f7 bd a7 c4 89 bd
       -0.13603204 -0.19183962 -0.12082404 -0.067269616
000110 0e ff d3 be 3b 29 62 bc 16 7f 59 be e8 65 28 bd
       -0.4140553 -0.013803775 -0.21239886 -0.04111281
000120 24 3a 1c 3e cc 01 da 3c 60 a0 73 bc a7 62 af bb
       0.15256554 0.026612185 -0.014869779 -0.0053523364
000130 1f 6e 1f bb 2a bb 23 bd 66 97 63 3d 4f 64 29 3c
       -0.0024327112 -0.039973415 0.055564307 0.010338857
000140 57 e6 cf 3c dc de 67 be 01 be 77 3d 68 8c 28 bc
       0.02537839 -0.22643608 0.060483936 -0.010287382
000150 63 b5 8f be fa 8c 40 bd e7 3f 5e 3c b0 a7 8e bc
       -0.28068075 -0.047009446 0.01356504 -0.017413944
000160 d6 6a ec bd 0f 01 79 bc de 76 b5 bd 6a fd 9b ba
       -0.11543815 -0.015198006 -0.08860563 -0.0011901085
000170 1f 8c e8 bc 88 25 1d be d8 5b 8c 3c 77 c7 a1 3e
       -0.028387127 -0.15346348 0.017133638 0.31597492
000180 74 0c 3d bd 56 04 5e be e0 af fc bd b8 52 95 3d
       -0.046154454 -0.21681342 -0.12338233 0.07291168
000190 c6 3a 1b bd 0d cf 3b be f4 05 25 3e 39 08 af 3d
       -0.037897848 -0.18340702 0.16115552 0.0854649
0001a0 8a 1e c1 bc 55 48 e1 3d c8 55 0a bc 0a 1a 1c 3d
       -0.023574132 0.11000124 -0.008443303 0.03811077
0001b0 60 ae 65 3b 1c 5a 29 3c f3 6b 20 bd 7c 7a 18 3f
       0.0035046563 0.010336425 -0.03916545 0.59561896
0001c0 22 96 8e bd ca 45 de bd 1e 34 1d bf 06 ab 86 be
       -0.06962229 -0.10853155 -0.6140765 -0.26302356
0001d0 20 52 50 3d 74 fc cb bd 5b 92 b0 3b 4f 13 b8 bd
       0.05085957 -0.09960261 0.0053885407 -0.08988058
0001e0 2a a2 3a 3c ed 28 9c bd dd 8b 3e be 86 3b e2 3d
       0.011391202 -0.076249935 -0.18608041 0.110465094
0001f0 a8 1f e7 bd b2 5c 30 bc 16 57 68 3d 52 81 fa bd
       -0.11285335 -0.010764288 0.056723677 -0.12231697
000200 65 ff 4c be 8d 01 13 bc 74 63 9f be 51 d0 cf bd
       -0.200193 -0.008972538 -0.31130564 -0.10147155
000210 f1 77 72 bb 1e 0e 8e 3c e6 9a 60 be 8a 86 0d be
       -0.003699776 0.017340716 -0.21934089 -0.13820854
000220 38 e1 96 3d 32 f9 cc b9 d2 dc ad bd 89 90 a2 bd
       0.07367176 -0.00039095577 -0.08489384 -0.07937724
000230 8e 16 3d 3c 13 f4 96 be 66 c9 bf 3c de b4 cb bd
       0.011541022 -0.2948309 0.023411464 -0.09946607
000240 a7 de 3e 3d 1d 7b d2 bd 6f e5 cd bd 3d 83 1f 3e
       0.046599057 -0.10277388 -0.100535266 0.15577407
000250 10 b9 59 bd bc 9c a7 bd b5 bd 69 3c ed 7e 00 be
       -0.053155005 -0.081841916 0.014266421 -0.12548418
000260 7f 5f ef bd b9 25 2e bd 23 0a 63 3d 2e e5 8d be
       -0.11688136 -0.042516444 0.05542959 -0.27713913
000270 df b0 1b be bc ee 28 be 20 45 08 3e 29 c1 9f 3d
       -0.1520419 -0.1649732 0.13307619 0.07800514
000280 45 58 83 bd 3b 5a bb bd ff e0 13 be 09 44 43 be
       -0.064133205 -0.091480695 -0.14441298 -0.19068922
000290 f8 8f 17 be a7 1b 48 3d 65 95 09 be b6 d3 f5 3c
       -0.14801013 0.048854496 -0.13435896 0.030008178
0002a0 b4 f9 bb be 31 f1 c2 bd 57 10 cf bc 2e 42 08 3e
       -0.36713946 -0.0951866 -0.025276346 0.13306496
0002b0 b9 6d 9e bc b9 b1 eb bd d5 f8 09 bd 1f 3e 92 be
       -0.01933943 -0.11508507 -0.03368457 -0.2856302
0002c0 3d 18 5a bd 0c 34 89 3b 76 fa d3 3c ab 65 46 bd
       -0.05324577 0.0041871127 0.025876265 -0.048436802
0002d0 36 a9 76 bd 81 9e ed bc 6c 8b fb 3c 31 56 01 be
       -0.060219966 -0.029006245 0.03070613 -0.12630536
0002e0 22 95 2e 3d b2 00 86 bc 49 8b d4 bd a8 fd 26 3c
       0.042622693 -0.016357753 -0.10378129 0.010192312
0002f0 16 d1 c1 be b3 91 57 bd ac 9d 77 3a f9 b7 8e ba
       -0.37854832 -0.052629184 0.0009445797 -0.0010888568
000300 78 54 ac bd f2 12 ee 3b 4a f3 60 bb 7c d7 bf be
       -0.08414549 0.007265442 -0.00343247 -0.3746909
000310 26 c8 79 bd 45 04 26 bd 28 6c af ba 41 22 41 3d
       -0.060981892 -0.040531415 -0.0013383674 0.047151808
000320 9b 3c 80 3d c9 9c 9d bc b7 4d 32 3d 73 eb 18 3e
       0.062615596 -0.0192398 0.043531146 0.14933567
000330 d0 54 67 3b 8f b7 66 be a2 75 11 3d 99 30 90 3d
       0.0035298355 -0.2253096 0.035512574 0.07040519
000340 54 a1 26 be 3e 2a 93 be 2d 72 0f 3c 39 14 cd b8
       -0.1627248 -0.28743166 0.008755249 -9.7789285e-05
000350 d0 dc a7 bd e0 ae 20 be 62 75 12 bd 08 51 3c bd
       -0.081964135 -0.1569171 -0.035756476 -0.045975715
000360 7a b0 ae bb 74 52 0a 3e cf 1c 34 be 06 b3 a7 bc
       -0.0053310962 0.13508016 -0.17589115 -0.020471107
000370 a0 06 3b 3d ba 69 44 bc 8f 6e 2f 3d fc fa 8d 3d
       0.045660615 -0.011988098 0.042830046 0.06932637
000380 c2 e7 b3 bd bb f6 88 3d db 4e fe bd c8 af 5d bc
       -0.08784439 0.06687685 -0.12417384 -0.013530679
000390 f9 e2 4a bd 10 79 ec 3c 3f c4 a6 bd e3 f7 58 3e
       -0.049532864 0.02886632 -0.081429 0.21188311
0003a0 76 74 26 bd e8 af 09 bd 60 2b 03 be e5 3f 03 3d
       -0.04063841 -0.033615023 -0.12809515 0.032043356
0003b0 35 67 f7 bc 79 ac 08 3e 70 90 a5 bd 15 92 84 3c
       -0.03020058 0.13347043 -0.0808419 0.016182939
0003c0 28 e6 26 be 7e 23 a8 3d d2 da 25 3e b6 b0 45 bc
       -0.16298735 0.082098946 0.16196755 -0.012066057
0003d0 81 bb 8c 3d b8 70 33 bd 0b 0a 3f be 29 97 72 bd
       0.06871701 -0.04380867 -0.18656175 -0.05922619
0003e0 78 e6 94 bc a8 d3 0f bd 78 7e 63 bc ca ef 5a bd
       -0.018176302 -0.03511396 -0.013885133 -0.053451337
0003f0 6a bc 0f be 39 93 75 bd a5 46 1a be b9 85 a9 bd
       -0.14036718 -0.059954856 -0.15066011 -0.08277459

body.0.0.bias f4 [64]
000000 d7 f9 8c be 19 59 85 be 2c 40 8f bd 84 c4 89 be
       -0.27534363 -0.2604454 -0.06994662 -0.26907742
000010 56 4d 30 3e 3f 98 a0 be ae 84 74 bd a7 2b 76 be
       0.17217001 -0.31366155 -0.059696846 -0.2404009
000020 1c 77 44 bd 93 66 07 be eb e8 82 bd 20 8f db bd
       -0.047965154 -0.13222723 -0.06392082 -0.10720658
000030 9f b1 05 be d6 20 aa be f8 dd 3e bd 90 c4 7b be
       -0.13056038 -0.33228177 -0.046598405 -0.24586701
000040 44 1f b3 bd 53 fb f5 3d f4 96 43 be 27 ed 28 be
       -0.08746198 0.12010827 -0.19100553 -0.16496716
000050 71 09 41 3e 18 0c fb bd ff d6 2c bb ae 0b 1c be
       0.18851258 -0.12258166 -0.0026373265 -0.1523883
000060 d5 fe 37 be 55 39 3d be 8b 81 a5 bd f6 ff 3b be
       -0.17968304 -0.18478902 -0.08081349 -0.1835936
000070 72 7b d8 bd 51 20 b2 bd b2 1b 89 3e 68 49 a2 b0
       -0.1057042 -0.0869757 0.26778942 -1.1807915e-09
000080 85 77 81 3d 3d c0 84 be e7 dd 30 be 2e ed eb bd
       0.06321625 -0.25927916 -0.17272149 -0.11519848
000090 91 14 b9 bd bf f5 2a be 9b 30 9b be 16 84 1b be
       -0.09037126 -0.16695307 -0.3031052 -0.15187106
0000a0 e7 a0 c3 be 86 d6 c5 bd cf 35 44 be 4c a2 de bd
       -0.38208696 -0.09660058 -0.19161151 -0.108707994
0000b0 8a 84 6e be a0 90 84 bd 0d 9b 5c be ba 2a 98 be
       -0.23292747 -0.064728975 -0.21543522 -0.29720098
0000c0 64 8a 72 be a3 7c 48 be cf 89 76 be a0 c2 07 be
       -0.23685604 -0.19578795 -0.24076007 -0.13257837
0000d0 df 01 79 bd fa ea c5 bd 13 7d 05 be af 84 6c bd
       -0.0607928 -0.09663959 -0.13035993 -0.057743724
0000e0 f2 de 58 be 9b bf 4e bd fc 26 68 be 37 03 65 be
       -0.21178797 -0.050475698 -0.22671121 -0.22364508
0000f0 e0 17 00 bd 2c 09 17 bd cd 10 5b bd 50 03 29 be
       -0.03127277 -0.03687398 -0.05348282 -0.1650517

heads.0.weight f4 [1, 64]
000000 5d f0 ed 3e e8 26 ec bc e6 5c b9 3c 4c bd 61 3b
       0.46472445 -0.028827146 0.022627305 0.0034445105
000010 f8 06 4d 3e 6a be e1 bb 91 58 8d 3c 28 c8 65 bc
       0.2002219 -0.006889154 0.017254146 -0.014024772
000020 a0 29 b7 3d 9c 6e a5 3d 37 a6 cd 3b 9d 66 17 3d
       0.08943486 0.08077738 0.006275918 0.036963094
000030 47 1a 95 3c b3 24 05 3f c0 3b 2b be 41 74 3a be
       0.018201007 0.52009124 -0.16722012 -0.1820841
000040 7d 47 33 bc 67 c5 19 3d fd c3 58 bd a9 6a 84 bf
       -0.010942337 0.037541773 -0.052921284 -1.034505
000050 1b 49 a0 be 6c 1e 92 bd e6 a8 8f be 84 e4 3c 3c
       -0.31305775 -0.07134709 -0.28058547 0.011529092
000060 5d f3 21 3d 2c d8 56 bf ed 7b 83 3d cb 82 10 3c
       0.03953873 -0.839236 0.06420121 0.008820246
000070 db 6e 0f 3d 8e eb 73 3c c2 c2 38 be c2 32 fe 3b
       0.03501783 0.014887704 -0.18043044 0.0077575156
000080 20 47 63 3e 98 b8 26 bc 67 b2 6a bd 98 5b 16 3c
       0.22195101 -0.0101758465 -0.057299044 0.009177111
000090 02 76 a7 3d 68 5a 8b 3d 40 c6 af 3c be 25 98 bd
       0.08176805 0.06804353 0.021456838 -0.07429074
0000a0 00 1a e4 b9 40 61 24 3b a6 6e 97 3d 66 92 00 bf
       -0.0004350692 0.002508238 0.073941514 -0.50223386
0000b0 80 4d 02 bf 90 ea 7f 3d 78 1f 23 3b 3e 4f 98 bc
       -0.50899506 0.062479556 0.0024890583 -0.018592473
0000c0 13 20 69 be ec 10 02 bd b0 43 c1 3d 50 8d 40 bb
       -0.22766142 -0.03175442 0.094367385 -0.0029381104
0000d0 a1 c0 c9 3c 34 aa 3c bd 66 ed b9 3c da 91 a2 3d
       0.024627985 -0.046060756 0.022696208 0.07937975
0000e0 a2 07 d5 bd 84 f0 60 be d6 dc d9 bb 7c 1c a5 3b
       -0.104018465 -0.2196675 -0.00664864 0.005038796
0000f0 45 e9 9f 3d 34 a4 fe 3d de 4e 2f bc a8 1e 80 3b
       0.078081645 0.12433663 -0.010699956 0.0039099045

heads.1.weight f4 [1, 64]
000000 e0 3e 50 3c 68 01 eb bb 92 57 ea 3d 3e 6d 94 bb
       0.012710303 -0.0071717985 0.11442484 -0.0045296242
000010 c2 28 a9 3c f6 39 9e bc da 05 41 bc 3d 0a 79 bd
       0.020649318 -0.019314747 -0.01178118 -0.06080078
000020 b8 29 84 bb 97 57 c1 3c 06 41 e1 3d 2a 62 2e 3d
       -0.0040332936 0.023601336 0.1099873 0.042574085
000030 58 2c 97 bd 88 40 1e bc c8 d7 5e bc a7 43 3e bc
       -0.07381505 -0.00965894 -0.013601251 -0.011612809
000040 2d 05 df 3d 1e ef a3 3a 6e d2 d9 bd ae 21 2a 3a
       0.10889659 0.0012507176 -0.106358394 0.0006490004
000050 0f 14 ba bc 18 57 b2 3d de b0 1f be 7c 9c b7 bd
       -0.022714643 0.08708018 -0.15594813 -0.08965394
000060 cc 04 02 3b 12 ca 8b 3d 7d 4c 98 bc 47 ca 94 3d
       0.0019839285 0.06825651 -0.01859116 0.07265144
000070 b0 7f a6 3c 78 05 bc 3d f2 98 5e bd 83 07 a0 3b
       0.020324558 0.091807306 -0.05434508 0.004883708
000080 e7 22 bb bb d0 ab e4 3d 09 a0 8e bd e1 be b2 bd
       -0.005710948 0.11165583 -0.06964118 -0.087278135
000090 8d 37 00 bd 0e 04 ec bd c8 35 32 bd 6a c4 63 bc
       -0.031302977 -0.11524211 -0.04350832 -0.013901809
0000a0 ff 55 80 bc e4 8a 65 3d d5 bf 23 3b 3b a9 44 3d
       -0.015666006 0.05604066 0.0024986167 0.048012953
0000b0 05 b8 d9 bc e0 01 bd bb 1a 0c c6 3d 40 76 62 3d
       -0.026577005 -0.005768046 0.09670277 0.055288553
0000c0 24 9d 5d bc 54 a1 e5 3d 6c 92 20 3c 54 22 a3 bd
       -0.013526235 0.112124115 0.009800535 -0.07965532
0000d0 80 00 ef bc 20 26 63 bd 90 a4 00 bc 33 07 42 b9
       -0.029175043 -0.05545628 -0.007851735 -0.00018503964
0000e0 db ba 93 3d 4d 2b 7b bd b1 ca 24 bc 63 74 d1 bd
       0.07213374 -0.06132059 -0.010058091 -0.10227277
0000f0 44 a4 b6 bd 32 02 de bc cc d8 ed bc 80 6b 0e 3c
       -0.0891805 -0.027100656 -0.02903404 0.008692622

heads.2.weight f4 [1, 64]
000000 2d 82 aa 3c b4 4e 0b 3d a7 23 19 3e 20 3c 11 3c
       0.020814026 0.034010604 0.14955007 0.008864433
000010 59 e4 73 bd 54 e5 e5 bc 00 6e d3 3c 58 95 63 3d
       -0.05954394 -0.028063454 0.025809288 0.055562347
000020 bc f5 bd 3d 94 13 8d bc c4 75 a6 bc 11 39 5a bc
       0.09275386 -0.01722125 -0.020319827 -0.01331927
000030 e4 6c e3 3c 21 91 03 bc f1 52 5f bd fd f5 e4 bc
       0.027761884 -0.008030207 -0.05452246 -0.027949328
000040 29 1b 33 3d c2 44 da bc 5d be 8a 3c c4 6a 8d 35
       0.043727074 -0.026644114 0.016936475 1.0536392e-06
000050 2f 69 06 be 78 67 aa 3c 56 91 47 3c 4b 94 9f 3c
       -0.13126062 0.02080129 0.012180647 0.019479891
000060 43 a9 8e 3d c1 f3 a6 3d e4 46 9a 3d 94 82 6b 3d
       0.06965878 0.08151961 0.075330526 0.057497576
000070 dc 7e 6a 3c c1 48 d2 bb f2 29 b1 bd dc f6 10 30
       0.014312472 -0.0064173643 -0.086505786 5.2737703e-10
000080 c1 99 b7 bc 55 08 58 3c 70 77 37 3d 5c 86 d4 bc
       -0.022412183 0.01318558 0.04479164 -0.025942974
000090 41 4b 36 3b eb 61 e8 3b 42 71 ff 3c 7a 18 14 3d
       0.002781585 0.007091751 0.031181935 0.036156155
0000a0 91 a9 18 3c 28 bc 1a 3d 1c 22 4f bc 5f ca 93 3d
       0.0093177715 0.037777096 -0.01264241 0.072163336
0000b0 f5 36 82 3c e6 96 d1 3d 65 4a a0 ba 39 f5 e1 3b
       0.015895346 0.1023386 -0.0012229203 0.006895688
0000c0 63 ba 50 3d b4 fa e0 3c e2 e1 61 3b 55 f9 26 bd
       0.050959002 0.027463295 0.0034466912 -0.040765125
0000d0 d2 80 38 3b 4b c7 50 3d e8 85 4a 3c bf 84 20 3c
       0.0028152955 0.05097131 0.012361027 0.009797274
0000e0 35 61 07 3d 2f 0d d5 3b 21 22 07 bc 79 71 97 3b
       0.03305169 0.0065018157 -0.008247883 0.0046216813
0000f0 90 23 f6 31 fc cc 99 bc 20 51 98 bb 02 91 ca 3c
       7.1635853e-09 -0.018774502 -0.0046483427 0.024727348
