saved/MH_TD3/checkpoint_actor_local_TD3.pth (torch, 43047 bytes, 7 tensors)

body.0.0.weight f4 [128, 9]
0	0x3e161c7d	0.14659305
1	0xbf7bb4e6	-0.98322904
2	0xbdfaa458	-0.12238377
3	0xbde6f3dc	-0.11276981
4	0x3da047bf	0.078261845
5	0xbd5a2c72	-0.053265043
6	0x3daacb5b	0.08339568
7	0x3eb15ade	0.3463964
8	0xbe64f213	-0.22357969
9	0x3ea59451	0.3233972
10	0xbea2c047	-0.3178732
11	0xbe9421c3	-0.28932008
12	0x3e03acf2	0.12858942
13	0xbc98e6e8	-0.018664792
14	0x3ec7b833	0.3900772
15	0x3e3fa442	0.18715003
16	0x3ce5f1b9	0.028069364
17	0x3e91a039	0.28442553
18	0x3ec2dddc	0.3805989
19	0x3eb4c6d4	0.35307944
20	0x3c5d9b38	0.013525777
21	0xbee95e37	-0.45579693
22	0xbe3424b8	-0.17592132
23	0x3ec912b8	0.39272094
24	0xbe29647a	-0.16542235
25	0x3e9fab3f	0.31185338
26	0xbde98aa6	-0.11403398
27	0x3dbe6a9c	0.09297678
28	0x3e1519c6	0.14560613
29	0xbe590ef8	-0.21197116
30	0xbda1868c	-0.07886991
31	0xbe9f7deb	-0.31150755
32	0xbe8b512e	-0.27210373
33	0xbc359420	-0.011082679
34	0xbd05acb8	-0.03263542
35	0x3e1cee28	0.15325224
36	0xbe7977cb	-0.24362104
37	0x3e35071a	0.1767849
38	0x3e7ca912	0.2467387
39	0xbe845320	-0.2584467
40	0xbda9c92c	-0.082903236
41	0x3c421900	0.011846781
42	0xbe80424c	-0.2505058
43	0xbe82a403	-0.25515756
44	0x3d1b7280	0.037950993
45	0xbe6954c7	-0.22786246
46	0x3f18d2ab	0.59696454
47	0xbd0c9f9d	-0.034331907
48	0xbe90ef07	-0.28307363
49	0x3e99ad68	0.3001511
50	0xbe61e7f4	-0.2206114
51	0x3c258699	0.010102891
52	0x3d6858c8	0.056725293
53	0x3e526d3a	0.20549479
54	0x3ee3483e	0.44391054
55	0x3deb8c18	0.1150133
56	0xbd500087	-0.050781753
57	0x3e298c4a	0.16557422
58	0xbe64de8c	-0.2235052
59	0x3e061169	0.13092579
60	0xbe98bfd1	-0.29833844
61	0xbd3f48f8	-0.046700448
62	0x3e27f752	0.16402939
63	0x3d9072fa	0.0705318
64	0xbe9c62d7	-0.3054416
65	0x3e3c2a9e	0.18375632
66	0x3f0f40c3	0.55958194
67	0xbe30e7c6	-0.17275915
68	0xbc8af559	-0.016962694
69	0x3e24b994	0.16086417
70	0xbe959b69	-0.2922013
71	0x3e8f8e77	0.2803838
72	0xbe089cab	-0.13341014
73	0x3f0233ad	0.508601
74	0xbe22813a	-0.15869609
75	0xbe877970	-0.26459837
76	0xbd13a186	-0.036042713
77	0x3e091762	0.13387826
78	0xbe9696fd	-0.2941207
79	0x3ebe9c83	0.37228784
80	0x3e70398e	0.23459455
81	0x3e074922	0.13211492
82	0x3f12196b	0.57070035
83	0x3eb26246	0.34840602
84	0xbe4f6896	-0.2025474
85	0xbd47d431	-0.048786346
86	0xbd48f2ff	-0.049059864
87	0x3d363730	0.044486225
88	0x3eccd935	0.40009466
89	0xbd526f08	-0.05137542
90	0x3ec81850	0.3908105
91	0x3e565622	0.20931295
92	0x3dbac607	0.09119802
93	0x3eb556af	0.35417697
94	0x3e8c7ca9	0.27438858
95	0x3d6f34a0	0.058399796
96	0x3e1fe996	0.1561645
97	0x3cfe6c7d	0.03105759
98	0x3e3ef3d2	0.18647698
99	0x3f004f73	0.5012123
100	0x3dcbca4f	0.09950697
101	0x3ec01315	0.37514558
102	0x3eb58876	0.35455674
103	0x3d9ad28d	0.075596906
104	0xbe3d4dca	-0.18486705
105	0xbd44e310	-0.048068106
106	0x3e5492e2	0.20759156
107	0xbdc2ad80	-0.09505749
108	0xbef4afd1	-0.47790387
109	0x3e9e6e0a	0.30943328
110	0xbf22efde	-0.6364726
111	0x3e46ffbe	0.19433495
112	0x3c43cebc	0.011951145
113	0x3ea17ed2	0.3154207
114	0x3e5382dc	0.20655388
115	0xbeed46ca	-0.4634307
116	0xbe14cd3e	-0.14531419
117	0x3e758a39	0.23978509
118	0x3efc3256	0.49257153
119	0xbf02e916	-0.5113691
120	0xbe8f74ad	-0.28018704
121	0x3d83d7a9	0.06437618
122	0x3dae330d	0.08505831
123	0x3e41ed9a	0.18938294
124	0x3cd38814	0.025821723
125	0x3e30de3e	0.17272279
126	0x3ea3e5d7	0.3201129
127	0x3c4ca7a5	0.012491141
128	0xbee11931	-0.43964532
129	0x3ed60a8f	0.4180493
130	0xbe2cf692	-0.16890934
131	0xbe8cd51e	-0.27506346
132	0x3e9af554	0.30265296
133	0x3ee5a76e	0.448543
134	0xbe4b5566	-0.19856796
135	0x3e1915aa	0.1494967
136	0xbe1ba17b	-0.15198319
137	0xbdd9946c	-0.10624012
138	0xbe55e35e	-0.20887515
139	0xbe9a486e	-0.30133384
140	0x3e35b696	0.17745432
141	0xbdd5e8f0	-0.1044482
142	0xbe746a43	-0.2386866
143	0x3e75561a	0.23958626
144	0xbe8514db	-0.25992474
145	0xbea19400	-0.31558228
146	0xbe1395da	-0.14412633
147	0xbd68d42d	-0.05684297
148	0x3e878d58	0.26475024
149	0xbe82dfe7	-0.2556145
150	0xbe8f2e23	-0.27964887
151	0x3e966fb2	0.29382092
152	0xbe507588	-0.20357335
153	0xbd0dc562	-0.034612067
154	0xbeb297d1	-0.34881452
155	0x3f07444d	0.52838594
156	0xbedb8a8c	-0.4287914
157	0x3ecb0cc3	0.39658174
158	0x3d75e79b	0.06003533
159	0x3a32d312	0.0006821613
160	0xbe41b814	-0.18917876
161	0x3d8b625c	0.0680587
162	0xbe0e4c39	-0.13896264
163	0xbe5bdc13	-0.2147067
164	0x3e9c1de9	0.3049157
165	0xbe8d073d	-0.27544585
166	0x3ea355b3	0.3190132
167	0xbe40bdce	-0.18822405
168	0xbda9542d	-0.082680084
169	0xbe92d97f	-0.2868156
170	0x3e876a09	0.26448086
171	0x3ef3dbc8	0.47628617
172	0x3eb96056	0.3620631
173	0xbecd3fdd	-0.40087786
174	0x3decccc4	0.115624934
175	0x3ea0907a	0.31360227
176	0xbdccde45	-0.10003332
177	0xbe8b00f1	-0.27149156
178	0xbdcd303f	-0.10018968
179	0x3e96c57f	0.29447553
180	0xbe8bc71c	-0.27300346
181	0x3d27541c	0.040851697
182	0xbd43d545	-0.04781081
183	0x3e425af2	0.18980005
184	0x3e6646a0	0.22487879
185	0xbd96ed56	-0.07369487
186	0x3ea5deda	0.32396585
187	0x3ee07a29	0.438432
188	0xbdbfd6e0	-0.09367156
189	0x3d071647	0.03298023
190	0xbecdd252	-0.40199524
191	0xbe52c4d1	-0.20582892
192	0xbde96f92	-0.113982335
193	0x3e7e1f5d	0.24816652
194	0x3e689836	0.22714314
195	0x3df4e09e	0.11956905
196	0x3dec5092	0.11538805
197	0x3dfa4270	0.12219703
198	0xbe5ee232	-0.21765974
199	0x3ce658d9	0.028118538
200	0x3e96827f	0.29396436
201	0x3ebb8ceb	0.3663095
202	0xbe1f638e	-0.15565321
203	0xbe6719f9	-0.22568502
204	0x3e585d9a	0.21129456
205	0x3eb21b3a	0.34786397
206	0x3e28572e	0.16439506
207	0x3d439529	0.047749672
208	0x3dd538d1	0.104112275
209	0xbe944b73	-0.28963813
210	0x3cc4aee9	0.024009185
211	0x3d97d95a	0.074145034
212	0xbe3997a6	-0.18124256
213	0xbe87a137	-0.26490185
214	0xbe4db625	-0.20089014
215	0xbe89d9b0	-0.26923895
216	0x3ddca079	0.10772795
217	0xbea149ba	-0.3150156
218	0xbe2354ae	-0.15950271
219	0x3ea34a2d	0.3189253
220	0x3e9a93f8	0.30191016
221	0x3dc3d442	0.09561969
222	0xbd1af90b	-0.037835162
223	0xbe676a40	-0.22599125
224	0x3e89e0f3	0.26929435
225	0xbe1891b8	-0.14899337
226	0x3eb244f4	0.34818232
227	0xbe894040	-0.2680683
228	0x3d8c4880	0.06849766
229	0x3da22ed9	0.07919092
230	0xbe61f48a	-0.2206594
231	0xbda43f58	-0.08019894
232	0x3e7b8a50	0.24564481
233	0x3e111718	0.14168966
234	0x3def1560	0.11673999
235	0x3e9fa44d	0.3118004
236	0xbe954cde	-0.29160208
237	0x3d82a2a4	0.063786775
238	0xbe9087ab	-0.28228506
239	0x3df75210	0.12076199
240	0xbd9597c0	-0.07304335
241	0x3ce85ec0	0.028365493
242	0xbc574be0	-0.013140649
243	0x3ece8f20	0.4034357
244	0x3c9e20a8	0.019302681
245	0xbc88ff25	-0.016723225
246	0x3ea008ce	0.31256717
247	0xbb75a5e4	-0.0037482912
248	0x3dc6cf48	0.097075045
249	0x3e4dfe3c	0.20116514
250	0x3e993f01	0.2993088
251	0x3df3bb94	0.11901012
252	0x3ef9bf28	0.48778653
253	0x3edfe1e8	0.4372704
254	0xbe6a7851	-0.2289746
255	0x3e742325	0.23841532

body.0.0.bias f4 [128]
0	0xbdb5b43f	-0.0887227
1	0xbe645cdb	-0.22301047
2	0x3d87e1ed	0.06634889
3	0xbe17a320	-0.14808321
4	0x3d17ef68	0.03709355
5	0x3d30c544	0.043156877
6	0x3ec68539	0.38773516
7	0x3e89964c	0.2687248
8	0x3ea15677	0.3151128
9	0xbe00fb6f	-0.12595914
10	0xbe887cff	-0.26657864
11	0xbe301b54	-0.17197925
12	0x3c017046	0.007900303
13	0xbe4bbbd8	-0.19895875
14	0xbd6a3ce0	-0.05718696
15	0xbe0e55d0	-0.13899922
16	0xbbb05869	-0.005381633
17	0xbe6bd1a4	-0.2302919
18	0xbe6a852a	-0.2290236
19	0x3e405f28	0.18786299
20	0xbde9122d	-0.1138042
21	0x3eb8b11e	0.3607263
22	0x3ddfdb1c	0.10930464
23	0x3e5bafdf	0.21453808
24	0xbe01ef88	-0.1268903
25	0x3d936d61	0.07198597
26	0xbe48b7b8	-0.19601333
27	0xbde29919	-0.11064357
28	0x3e2c97dd	0.16854806
29	0x3ea9534d	0.33071366
30	0xbea73372	-0.32656437
31	0x3e74b8ba	0.23898593
32	0x3e98f594	0.2987486
33	0x3dcfbb04	0.10143092
34	0xbd61b92d	-0.055108238
35	0xbbe9c1f3	-0.0071337163
36	0x3d952108	0.07281691
37	0xbe5e376b	-0.21700828
38	0xbd643179	-0.055711243
39	0xbe2888b3	-0.16458397
40	0xbe96444a	-0.29348975
41	0x3e58e38b	0.21180551
42	0xbe3a70e3	-0.18207125
43	0x3e2b49c4	0.16727358
44	0x3d852aea	0.06502326
45	0xbec714f0	-0.38883162
46	0x3e6a9efc	0.2291221
47	0xbe6cd249	-0.23127092
48	0xbdb1ebda	-0.08687563
49	0x3e355f08	0.17712033
50	0x3cf06890	0.029346734
51	0xbe265c07	-0.16246043
52	0x3e271eb8	0.16320312
53	0x3e80e965	0.25178066
54	0x3e65461f	0.2239003
55	0xbe03d3d3	-0.12873773
56	0x3cd993e3	0.026559776
57	0xbe89abae	-0.26888794
58	0x3e8bbff6	0.27294892
59	0xbd05166e	-0.032492094
60	0x3dbe82ef	0.09302317
61	0x3e75d49e	0.24006888
62	0xbe958382	-0.29201895
63	0x3dbb41ce	0.091434106
64	0x3e92c72f	0.2866759
65	0xbdceb713	-0.100935124
66	0xbc822927	-0.015888764
67	0x3e7141d5	0.23560269
68	0x3dbc0016	0.09179704
69	0x3eab5b31	0.3346801
70	0x3d168348	0.036746293
71	0x3e89de29	0.26927307
72	0x3e941e21	0.28929237
73	0x3e46ee36	0.19426808
74	0x3d9b1d9a	0.075740054
75	0xbdd1eb07	-0.10249906
76	0xbe1785a2	-0.1479707
77	0x3ea6059e	0.3242616
78	0x3df99438	0.121864736
79	0xbb44331f	-0.0029937697
80	0x3d7649da	0.060129024
81	0x3e7b8719	0.24563254
82	0x3e867124	0.26258194
83	0x3da237bc	0.07920787
84	0x3e9f8ab7	0.3116052
85	0x3dcf3bfa	0.101188615
86	0x3d2a5198	0.04158172
87	0xbdcc5fdc	-0.09979221
88	0x3d766123	0.06015123
89	0x3e7c6999	0.24649657
90	0x3e40e3cd	0.18836899
91	0xbe6fe4ab	-0.23427074
92	0xbe754fda	-0.23956242
93	0xbea11c54	-0.31466925
94	0x3d90777a	0.07054038
95	0xbe146b07	-0.14493953
96	0x3d30a140	0.04312253
97	0x3ea537f4	0.3226925
98	0xbd5be315	-0.05368336
99	0xbea796f6	-0.32732362
100	0xbdaff1b5	-0.08591024
101	0x3da80ed8	0.08205956
102	0x3e115565	0.14192732
103	0x3e266737	0.16250311
104	0x3e82f448	0.25576997
105	0x3de4f464	0.11179426
106	0x3dfb8b21	0.12282396
107	0x3eb60172	0.35547978
108	0x3e07ebc6	0.13273534
109	0x3e8d98fd	0.27655783
110	0x3d7653b7	0.06013843
111	0x3ea18e8c	0.31554067
112	0xbdfda6dc	-0.123853415
113	0x3e867d2d	0.26267377
114	0x3eaa1e4f	0.3322625
115	0xbe81efdb	-0.25378308
116	0xbdc4a9af	-0.09602677
117	0xbc03fd2b	-0.008055965
118	0xbe85b1bb	-0.2611216
119	0xbd4818d8	-0.048851818
120	0x3e199a7b	0.15000336
121	0xbe811c94	-0.25217116
122	0xbe8f24b3	-0.27957687
123	0x3d9a5b5c	0.07536957
124	0xbdb2793c	-0.0871453
125	0xbd48f21f	-0.04905903
126	0xbe87ecb4	-0.26547778
127	0x3e0dfd32	0.13866118

body.1.0.weight f4 [64, 128]
0	0xbd117d5a	-0.035519935
1	0x3bfbd6cc	0.007685518
2	0x3c5d3970	0.013502464
3	0xbd2ab15a	-0.041673042
4	0xbd850718	-0.06495494
5	0x3dbbed4b	0.091761194
6	0x3eae381a	0.34027177
7	0xbcc3cc6f	-0.023901192
8	0x3e7de3db	0.24793951
9	0x3cc94666	0.024569701
10	0x3ca4e869	0.020130353
11	0x3dd7bdfc	0.105342835
12	0x3c8b5d0e	0.017012145
13	0xbe8f4a24	-0.27986252
14	0x3dce426e	0.10071264
15	0x3d442066	0.04788246
16	0x3d33ae71	0.043867532
17	0x3dd5c60c	0.10438165
18	0x3d0c4e40	0.034254313
19	0x3d1309b2	0.035897918
20	0x3ce599da	0.028027464
21	0xbb1fef28	-0.0024404023
22	0xbd45aaae	-0.048258476
23	0xbc3618ae	-0.0111142825
24	0xbd60a131	-0.054841224
25	0xbce8ee4a	-0.028433938
26	0xbcff9ea4	-0.031203575
27	0xbd0b730c	-0.034045264
28	0x3cdff8a1	0.027340235
29	0x3d1ac056	0.037781082
30	0xbda985a4	-0.08277443
31	0x3d7a2d45	0.06107833
32	0xbd91a3ff	-0.07111358
33	0x3d61a2cb	0.055086892
34	0xbd9f4023	-0.07775905
35	0x3e47f8bf	0.19528483
36	0xbd82af2a	-0.06381066
37	0xbdb1ccde	-0.086816534
38	0xbd1a946a	-0.037739195
39	0xbe3129c1	-0.17301084
40	0x3d47db9e	0.048793428
41	0xbd89d1d2	-0.06729473
42	0x3e0aeb28	0.13566267
43	0x3d8a1c77	0.067437105
44	0x3e07acb4	0.13249475
45	0xbea7db72	-0.3278461
46	0x3dd6ca04	0.1048775
47	0xbc7291a8	-0.014805235
48	0x3d6abffc	0.057311997
49	0xbddd0449	-0.10791833
50	0x3db1ec27	0.086876206
51	0x3d200657	0.039068546
52	0x3b53bf40	0.0032310039
53	0xbdb61fb9	-0.08892769
54	0x3dbf84b5	0.09351484
55	0x3d6dd244	0.058061853
56	0xbac0f82f	-0.0014722402
57	0xbcf79868	-0.03022404
58	0x3d6d6336	0.057955943
59	0x3b0af367	0.0021202208
60	0x3c9c7755	0.01909987
61	0xbd6744b1	-0.056461994
62	0xbc01e8e3	-0.00792906
63	0x3e0ceec0	0.13762951
64	0x3d8a5c3a	0.06755872
65	0xbe5b29d3	-0.21402673
66	0x3ce70094	0.028198518
67	0x3e6f10c1	0.23346235
68	0x3da3f42f	0.08005559
69	0x3dd1c62f	0.10242879
70	0xbd3e1681	-0.04640818
71	0xbd610ef9	-0.05494592
72	0x3e137a0f	0.1440203
73	0x3dc0b7c9	0.09410054
74	0x3da0158e	0.07816611
75	0xbe42df52	-0.19030502
76	0xbe028808	-0.12747204
77	0x3d6b6bf6	0.057476006
78	0xbdad7ec8	-0.08471447
79	0x3e45a6a0	0.19301844
80	0xbd778464	-0.060428992
81	0xbc24267c	-0.010018941
82	0x3e791083	0.24322705
83	0x3d4eab76	0.050456487
84	0xbe591d6d	-0.21202631
85	0xbe0237e8	-0.12716639
86	0x3d914fef	0.07095324
87	0xbc2b5ed0	-0.010459617
88	0xbe9fbb30	-0.311975
89	0xbd0debf1	-0.03464884
90	0xbddd901a	-0.10818501
91	0x3da42d7b	0.08016487
92	0x3a97f131	0.0011592266
93	0xbcaded90	-0.021231443
94	0xbda16663	-0.07880857
95	0x3d5d637e	0.05404996
96	0xbd84687e	-0.06465243
97	0xbd9d5291	-0.07681764
98	0x3ce5d264	0.028054424
99	0x3ad018c0	0.0015876517
100	0x3d5d8518	0.054082006
101	0x3db67f75	0.08911029
102	0xbc28796f	-0.010282858
103	0x3d45f24f	0.048326787
104	0x3c56e5f5	0.0131163495
105	0xbc447fea	-0.011993388
106	0xbccc00f2	-0.024902795
107	0x3d698654	0.05701287
108	0x3d16f3c0	0.036853552
109	0xbd1d8737	-0.03845903
110	0xbce212ae	-0.027596798
111	0x3dcb4628	0.099254906
112	0x3cfc058c	0.030764364
113	0xbd631c90	-0.05544716
114	0x3dd05758	0.101729095
115	0xbe054b9d	-0.13017125
116	0x3e117434	0.14204484
117	0x3d7cebdb	0.061748367
118	0x3d9356f3	0.071943186
119	0xbda9c516	-0.08289544
120	0x3c34b209	0.011028775
121	0x3cb38ae4	0.021916814
122	0xbf196918	-0.59925985
123	0x3d3becb7	0.045880046
124	0xbd38ee94	-0.0451494
125	0x3d0b2115	0.033967096
126	0xbe2d840b	-0.16944902
127	0x3d9b24cb	0.07575377
128	0x3e0144e3	0.12623934
129	0x3d42a342	0.047518976
130	0x3e0ada26	0.1355978
131	0x3d9c8681	0.07642842
132	0x3d9ee5bd	0.07758663
133	0xbe28fa20	-0.16501665
134	0xbe41fb22	-0.18943456
135	0x3e05ea4f	0.13077663
136	0xbe6cc7fa	-0.2312316
137	0xbe1c5dc6	-0.15270147
138	0xbc493f53	-0.012283164
139	0x3d2ecd7c	0.042676434
140	0x3de323d7	0.1109082
141	0xbcc463cc	-0.023973368
142	0x3dc5fdb1	0.096675284
143	0x3d4e99c6	0.05043962
144	0xbd71f25a	-0.059069015
145	0x3b39fab1	0.0028378183
146	0x3d0fa554	0.03506978
147	0xbc639260	-0.013889879
148	0x3ccb13a3	0.024789637
149	0x3bebbea8	0.007194359
150	0x3e497299	0.19672622
151	0x3d7419b1	0.059594814
152	0x3e0f7f86	0.1401349
153	0x3deeb096	0.11654775
154	0xbc4cdd38	-0.012503915
155	0x3de4ccda	0.11171885
156	0xbd0f4ab4	-0.03498335
157	0x3d2ef80b	0.04271702
158	0xbd7602b5	-0.060061175
159	0x3de19dfc	0.11016461
160	0x3dad8185	0.084719695
161	0xbd5e6ddf	-0.054304
162	0x3e1f8ada	0.15580311
163	0x3b8afe99	0.004241776
164	0x3d81bf02	0.0633526
165	0x3d102ef0	0.035201013
166	0x3d9fc7a7	0.078017525
167	0x3e3b4b00	0.18290329
168	0xbd485406	-0.048908256
169	0xbc4c9162	-0.012485834
170	0x3dc99408	0.09842688
171	0x3c90ecb4	0.017690994
172	0xbd775eb7	-0.06039306
173	0x3e9a107a	0.30090696
174	0xbc8c8172	-0.017151568
175	0x3c65cebd	0.014026341
176	0x3e2c0c48	0.1680156
177	0x3d958d33	0.07302322
178	0x3d7cd452	0.061725922
179	0x3e5a4e64	0.21318966
180	0x3e16f935	0.14743502
181	0x3cd49b9c	0.025953107
182	0xbb17a327	-0.0023138018
183	0x3dc44e61	0.09585262
184	0x3e15198c	0.14560527
185	0xbd7172d2	-0.05894739
186	0xbc81e549	-0.015856402
187	0xbc5e62bd	-0.013573346
188	0x3d49ad21	0.049237374
189	0x3d80b83e	0.062851414
190	0xbda20823	-0.07911708
191	0xbdb0f05b	-0.08639594
192	0x3e02760a	0.12740341
193	0x3e582ad8	0.21110094
194	0x3dae4dd2	0.08510937
195	0xbe19d80c	-0.15023822
196	0xbc540eea	-0.012943009
197	0xbd0ec972	-0.034860082
198	0xbce9b5f6	-0.028529149
199	0xba720454	-0.00092322123
200	0xbce733ce	-0.028222945
201	0x3d741d3f	0.059598204
202	0x3d0a2aba	0.033732153
203	0x3e46d4b6	0.1941708
204	0x3e14d44e	0.14534113
205	0xbd815da0	-0.06316686
206	0x3d31d592	0.043416567
207	0xbe401acc	-0.18760222
208	0x3dd0afac	0.10189757
209	0x3dce1462	0.100624815
210	0x3caa00db	0.020752361
211	0xbca61397	-0.020273013
212	0xbdf14f67	-0.11782723
213	0x3e39e971	0.18155457
214	0x3c7c8b08	0.015414007
215	0x3d975611	0.07389463
216	0x3e70911d	0.23492856
217	0x3d1398ad	0.036034275
218	0xbb8f15e7	-0.0043666246
219	0xbe2a7ad6	-0.1664842
220	0x3e14ed41	0.1454363
221	0xbd7517b8	-0.059837073
222	0x3e0c3a05	0.13694008
223	0x3d048a75	0.032358605
224	0x3dc43b00	0.09581566
225	0x3ddcdf09	0.10784728
226	0xbd8534b9	-0.06504197
227	0xbd3e2ad2	-0.046427555
228	0x3e057b2e	0.1303527
229	0x3eb3b97d	0.35102454
230	0xbe0a9358	-0.1353277
231	0x3af8bf1a	0.0018977851
232	0x3dadb5ba	0.08481927
233	0xbd14fd38	-0.0363743
234	0x3dae9454	0.08524385
235	0xbd99743e	-0.074928746
236	0xbd05c924	-0.032662526
237	0xbda4c9bf	-0.080462925
238	0x3bb1d073	0.0054264604
239	0xbb81cc16	-0.0039610965
240	0xbda7f46c	-0.08200917
241	0x3e321195	0.1738952
242	0x3d5a91a9	0.05336157
243	0x3d349556	0.04408773
244	0xbcf944dc	-0.030428343
245	0x3c6c925f	0.014439194
246	0xbc84cf70	-0.016212195
247	0x3d0b618e	0.034028582
248	0x3dee6842	0.11640979
249	0x3d1518cc	0.0364006
250	0x3f8ca231	1.0986997
251	0x3c8e4ede	0.017371591
252	0xbd9a8560	-0.075449705
253	0x3b5b18ef	0.003343161
254	0x3e21d876	0.1580523
255	0xbe0b9372	-0.13630465

body.1.0.bias f4 [64]
0	0xba560a65	-0.0008165001
1	0xbd09392b	-0.033501785
2	0xbdb1dd55	-0.08684794
3	0x3da55d31	0.080744155
4	0xbd27d6d2	-0.040976353
5	0x3d8738bb	0.06602617
6	0xbda5b032	-0.08090247
7	0x3d4a0eac	0.0493304
8	0x3d78d9c0	0.060754538
9	0xbdae999b	-0.08525392
10	0x3d861ed7	0.06548851
11	0x3ade4947	0.0016959094
12	0x3d93b835	0.07212869
13	0xbce26de0	-0.027640283
14	0x3ba39afb	0.0049928403
15	0x3dca594d	0.09880314
16	0x3d02c11f	0.031922456
17	0x3ba8b6e6	0.0051487563
18	0xbd49e69f	-0.049292203
19	0x3dd747d5	0.10511748
20	0x3d0379f3	0.03209872
21	0x3d1663b4	0.036716178
22	0xbd122319	-0.035678003
23	0x3c77c856	0.015123447
24	0x3dbb17e4	0.09135416
25	0xbba2c08a	-0.0049668
26	0xbd166487	-0.036716964
27	0xbd90918e	-0.07059012
28	0x3deec152	0.11657967
29	0xbd0d5ee2	-0.034514315
30	0x3d8cdad1	0.068776734
31	0xbc40329e	-0.011730818
32	0x3cb8927c	0.022530787
33	0xbc086acd	-0.008326245
34	0xbd89b5fb	-0.06724163
35	0x3d1ce802	0.038307197
36	0xbc9eb98e	-0.019375589
37	0x3cae5da7	0.021284891
38	0xbda375af	-0.07981431
39	0xbd1c0eb1	-0.03809995
40	0xbce391fe	-0.027779575
41	0xbd84b0ce	-0.06479035
42	0x3db1bc14	0.08678451
43	0x3d7b8839	0.06140921
44	0x3c813e41	0.015776755
45	0xbcd7e02a	-0.026352007
46	0xbd4153c0	-0.04719901
47	0x3c5d5f08	0.013511427
48	0xbd8e3808	-0.06944281
49	0xbc10c5c8	-0.008836217
50	0x3d607f7a	0.05480907
51	0xbd7e743e	-0.062122576
52	0xbd4b1d1e	-0.049588315
53	0xbcc0cffc	-0.023536675
54	0x3d705b71	0.058680955
55	0x3e3519dd	0.17685647
56	0x3e14f664	0.14547116
57	0x3d85cf03	0.06533625
58	0xbcc67050	-0.024223477
59	0xbcfa29c1	-0.030537488
60	0x3d590e1b	0.052991968
61	0x3bd0f17c	0.0063764434
62	0xbd6904ae	-0.05688923
63	0xbcd71ce3	-0.026258891

heads.0.0.weight f4 [1, 64]
0	0xbdfd6067	-0.12371903
1	0x3d731168	0.05934277
2	0x3ea30d98	0.3184631
3	0x3e461600	0.1934433
4	0xbe6d2adc	-0.23160881
5	0xbdd3333d	-0.10312507
6	0x3be6c3a0	0.0070423633
7	0xbe32c6df	-0.17458676
8	0x3cbd7839	0.023128616
9	0xbe47e310	-0.19520211
10	0x3e1a256e	0.15053341
11	0xbd9397cb	-0.072066866
12	0xbd9d1e7a	-0.076718286
13	0xbde93d97	-0.113887005
14	0x3e964154	0.29346716
15	0x3e0decbc	0.13859838
16	0x3debf6d6	0.115216896
17	0x3fae5b30	1.3621578
18	0x3db22d5d	0.087000586
19	0xbe9c8323	-0.305688
20	0x3e8c1662	0.27360827
21	0xbe830386	-0.25588626
22	0x3e5a3e6c	0.21312875
23	0xbd912b29	-0.0708831
24	0xbeaf0713	-0.34185085
25	0x3daec6ed	0.08534036
26	0xbd06c4a8	-0.03290239
27	0x3f8edccf	1.1161135
28	0xbdc5ecf8	-0.09664339
29	0xbda64f4e	-0.08120595
30	0xbd9fcaf6	-0.078023836
31	0xbeb8663a	-0.36015493
32	0x3e2c9eb7	0.1685742
33	0x3dbc6316	0.09198587
34	0x3d2aa65b	0.041662555
35	0xbdc8bbcb	-0.09801444
36	0x3e35b1ff	0.17743681
37	0xbd95d828	-0.07316619
38	0xbd91f59e	-0.07126926
39	0x3e880678	0.26567435
40	0xb900e15f	-0.00012290989
41	0x3d728377	0.059207406
42	0x3db20a00	0.086933136
43	0x3e336cd4	0.17521983
44	0x3ed87885	0.4227945
45	0x3d9d85c3	0.07691529
46	0x3d5fe4dc	0.054661617
47	0xbb2a01e0	-0.002594106
48	0x3dbc4502	0.0919285
49	0x3d1d0197	0.038331594
50	0xbd9a58a3	-0.07536437
51	0xbe3f512c	-0.18683308
52	0xbd4d1cef	-0.05007642
53	0x3d07315c	0.033006057
54	0xbdb1da76	-0.08684246
55	0xbe504ee8	-0.203426
56	0xbda93680	-0.08262348
57	0xbd14d8cf	-0.036339577
58	0xbd6fadb0	-0.05851525
59	0x3e89e119	0.26929548
60	0xbe9174ab	-0.28409323
61	0x3fb3c75a	1.4045212
62	0xbdd400df	-0.10351729
63	0xbda51de7	-0.08062344

heads.1.0.weight f4 [1, 64]
0	0xbda4dbcb	-0.08049735
1	0x3e434513	0.19069318
2	0xbda2db9e	-0.07952045
3	0x3d7e3438	0.06206152
4	0x3f9c6d95	1.2220942
5	0xbdfb1ac7	-0.12260967
6	0xbd3fa3f0	-0.046787202
7	0x3f980851	1.1877538
8	0xbd31a03b	-0.0433657
9	0xbe2af75e	-0.16695926
10	0x3df2c1d0	0.11853373
11	0xbc51a674	-0.012796033
12	0xbb3d2794	-0.0028862702
13	0x3d9d87e7	0.07691937
14	0xbe82472b	-0.25444922
15	0xbd00af27	-0.03141704
16	0xbc4e5a60	-0.012594789
17	0x3dab7ddd	0.08373616
18	0x3e220e2f	0.15825723
19	0x3e7a8613	0.24465208
20	0x3f0d776c	0.5526035
21	0xbe2fc5d3	-0.17165308
22	0xbe810ff3	-0.2520748
23	0x3e20c812	0.15701321
24	0x3fabb6df	1.3415183
25	0x3dab302c	0.083587974
26	0xbcc04f68	-0.023475364
27	0xbe86b9d2	-0.26313645
28	0x3e11b93d	0.14230819
29	0x3d1d4ae0	0.038401484
30	0xbdb7cb6d	-0.08974347
31	0xbeec977b	-0.4620932
32	0xbbfa7e50	-0.007644452
33	0xbdc6bb61	-0.097037084
34	0x3d120fe2	0.03565968
35	0xbd6a2ce3	-0.057171714
36	0x3e27c14f	0.16382335
37	0x3e31e703	0.1737328
38	0x3d930f22	0.07180621
39	0xbcc9536f	-0.024575917
40	0xbe389a7d	-0.18027683
41	0x3e2b3733	0.16720276
42	0xbe49a08a	-0.19690147
43	0x3da65b51	0.08122886
44	0xbdd6d384	-0.10489562
45	0x3e21f35b	0.15815489
46	0xbbcbeea0	-0.0062235147
47	0xbd6aeffa	-0.057357766
48	0xbddd287c	-0.107987374
49	0x3e2f787e	0.17135808
50	0xbc94cffa	-0.018165577
51	0x3f293f6f	0.66112417
52	0x3ca41bf8	0.020032868
53	0x3dd05e02	0.101741806
54	0xbd37d8aa	-0.04488436
55	0x3d51e7fd	0.051246632
56	0x3f1547bb	0.58312577
57	0xbdacb460	-0.08432841
58	0x3c899928	0.016796663
59	0x3b7aac17	0.0038249546
60	0xbe3f7390	-0.18696427
61	0xbe108d74	-0.1411646
62	0xbd8e5589	-0.06949908
63	0xbd863a66	-0.06554107

heads.2.0.weight f4 [1, 64]
0	0x3e12d5d4	0.14339381
1	0x3e7e982f	0.24862741
2	0x3e510615	0.20412476
3	0x3e27dd08	0.1639291
4	0xbd6344b6	-0.05548545
5	0xbdb55405	-0.08853916
6	0xbd01f120	-0.031724095
7	0x3d380b04	0.04493238
8	0xbd620075	-0.055176217
9	0x3e2f2419	0.17103614
10	0x3bf32964	0.0074207056
11	0x3cb225e5	0.021746585
12	0xbdc5927d	-0.09647081
13	0xbdc0dbc6	-0.094169185
14	0x3e988eb0	0.29796362
15	0x3e4b6a8c	0.19864863
16	0xbd891743	-0.0669389
17	0xbcacd1a0	-0.02109605
18	0x3c52e6e6	0.012872433
19	0xbb9ae81e	-0.0047273776
20	0xbcfdacad	-0.030966127
21	0xbda5dc90	-0.080987096
22	0x3df523a6	0.1196969
23	0x3e0ab220	0.13544512
24	0x3d922a7f	0.07137012
25	0x3d84ff91	0.06494058
26	0x3deb59e6	0.11491756
27	0xbde1177a	-0.10990806
28	0x3e3a9d2a	0.18224016
29	0xbde0afe0	-0.109710455
30	0xbd0e2123	-0.03469957
31	0x3dbc02cd	0.09180222
32	0x3e105609	0.1409532
33	0x3e61eb8b	0.22062509
34	0x3dc33fa7	0.09533625
35	0x3f0ec649	0.5577131
36	0x3e0c6b0b	0.13712709
37	0x3e11f26b	0.14252631
38	0xbda0c076	-0.07849209
39	0x3daf0dce	0.08547555
40	0xbdda252f	-0.106516235
41	0x3d9ccf97	0.07656782
42	0xbd401eb8	-0.046904296
43	0x3e1704a6	0.14747867
44	0x3e6f8fae	0.23394653
45	0x3e4e1b63	0.20127635
46	0x3da3f5ca	0.08005865
47	0xbd2491d1	-0.040178124
48	0xbc3097e0	-0.010778397
49	0x3dc49825	0.09599332
50	0x3cf45df4	0.029829957
51	0xbc73321d	-0.014843491
52	0xbd1798c2	-0.037010916
53	0x3de78d0e	0.11306201
54	0xbda3e142	-0.08001949
55	0x3f53edcc	0.82784724
56	0x3e316a35	0.17325671
57	0xbdf538b0	-0.11973703
58	0xbd26acb0	-0.04069203
59	0xbd4595ad	-0.048238445
60	0x3df75697	0.120770626
61	0x3da4815b	0.08032485
62	0xbcd46b9b	-0.025930217
63	0x3d78dab0	0.06075543
