saved/MH_TD3/checkpoint_critic_local_TD3_1.pth (torch, 55979 bytes, 11 tensors)

feet.0.0.weight f4 [128, 10]
00000000: e106 62bf 8cba 0cbe e30a 93bf 066f 82be
00000010: bf82 4c3d 7e50 bebe 90ad 423d cb07 b03f
00000020: 6632 59be b53c a13c cbac a33f 5660 41bf
00000030: 0cf9 ca3e 1868 853e 18f3 54bd a463 5d3d
00000040: b247 97be 6258 78bf 68e2 3e3d dbd1 cc3c
00000050: 7d67 6abe 21ef 9ebe c3fe 84be d71e a03e
00000060: e87e 68be ca11 1f3e 988e ddbd 18a5 b43d
00000070: 0673 0d3e 74eb 4dbe 923c 99bd a94e 97be
00000080: f52a 84be c042 2cbc 40a1 fdbc 8ee0 143e
00000090: 83aa 6cbe eebc 2b3e dab1 6f3e 8811 7bbe
000000a0: a417 2b3f 5ccb 32bf b854 f6bd acae 05be
000000b0: 3bcc 99be 5349 e7be 9c3c 6fbd 7651 c1bf
000000c0: 2836 23be 81d3 2b3d 05b6 76bf 2323 293d
000000d0: c446 9cbf 300a 14be fe0c 853e e0f6 b0be
000000e0: 6f87 a6bd b994 693f ea0a 7cbe ec00 933c
000000f0: 1e98 87bf fe24 093f 2dd9 9ebe 8fac 6ebc
00000100: 3f1d 43be 7ef7 473c 6114 6f3e 9bc2 f53e
00000110: b009 5cbd fd4b c9bd 80be 3b3f 82e3 8bbc
00000120: 217e 283f 2d9a 18bd 7ca9 a8be cd09 8fbe
00000130: 25d2 6ebe 6586 90bf acc3 98be 13ff 043e
00000140: 77e2 f43e 7374 7d3e f163 8b3f f7c6 f93d
00000150: e57a 0cbf 5143 1dbd ac35 57be 0025 9bbd
00000160: e20b 683e 367e 37be 4d44 723f f7e0 663e
00000170: 9908 85bf 9e0f aebd 343f 31be cb04 15bf
00000180: 1023 93be 4e97 7ebf 4227 353e dd4b 193c
00000190: 27f8 fbbe 3565 a7be aa07 243f 9d82 06bf
000001a0: 3a05 c0be ff36 47be f869 13be 6631 b93e
000001b0: f4ae b4bd 92d5 01bd 38f7 50be 84c5 ec3d
000001c0: 83a2 95bd 4e7d 363e 1bd4 963d a61f d3bd
000001d0: 8679 85be 7b10 453e c7c9 943e c5bc 8fbe
000001e0: 0c85 923e 886b 303f dc2b f03c 355e 2dbf
000001f0: 0164 4fbe db4c 3cbe 9f15 d7bc d8bf 0dbf
00000200: 9a2e 90be 267b 1fbb 2062 12be eccb 45be
00000210: 6b75 9d3e e5ed 9c3e 30e6 40be 943a 113e
00000220: f2a4 13be 0e6a cebd 80e9 4abe 9a5d 92be
00000230: 6863 2c3e caee cabd 5cdf 67be 1abf 683e
00000240: 3049 76be 5649 99be a6f0 07be e091 5cbd
00000250: 897a 813e 2e51 78be 2ad5 87be b5c7 913e
00000260: fdc2 45be 4c84 8d3d 2ecb 67be d222 703e
00000270: 5338 57be 4bbe 9e3e 0075 c9bb 449d 84bd
00000280: bcfa 93be f6e3 46bf 9836 babd 5ed5 c5be
00000290: 9e3f 7d3e ef7b 9cbe 9479 853e 020a 34be
000002a0: 52e7 9abd dae5 48bf 8fa4 063f 359f 943c
000002b0: b941 943f d4b5 c7be 89b4 8ebd a9b4 cc3e
000002c0: 69dd aabe 48e0 8fbf e3f5 14be cc5d d33d
000002d0: 932b 053e 75da cd3e 74f7 723f e034 2fbd
000002e0: 1d5b f53c 854f 273c 8c51 083e fc06 aabf
000002f0: aafe b5bd cb21 1abe d750 40c0 dfc0 833e
00000300: b983 37c0 c5f8 903e fab9 843e 6ec4 4e3e
00000310: 90f1 843e c46a ed3d 3fc3 9cbe 0c91 c23b
00000320: e45b d53d 3b2e 38c0 d562 2fbe 6630 493c
00000330: a3c1 033e b995 0c3e 413c aa3d 504e 583d
00000340: 2843 d73d 5703 3cbf 5848 0740 55c4 30bf
00000350: dfc9 dabe 2dff 4abf 085f b3be 3061 20bf
00000360: c9b6 37be 96f1 4ebf e044 57bc 8f5c 7dbc
00000370: 0569 4ebf 4d1f 473e 0fdf 9fbf 9d7a 13be
00000380: 0fb1 ca3e 3927 82be ee3c cb3e 0dc8 8d3f
00000390: 80a7 89bb 7630 41bc f113 2e3e 7db5 14bf
000003a0: ad6d 883f af6f 443d ec7e d4bd cb9a ac3e
000003b0: e007 fabe dde5 84bf f71c 89be c90d e63b
000003c0: ee3c d83f 0eb4 2fbf 93ab aebf 2e23 843e
000003d0: 73cb 94bd 0841 3ebe 3873 603e 0bc4 2dbf
000003e0: 48c4 a93d 8240 683c 1310 423f 9c8d 5fbf
000003f0: 8207 cbbe 30e1 133f f6b7 a5be 1a52 0fbf
-0.88291746 -0.13743037 -1.1487697 -0.2547533 0.049929377 -0.37170786 0.047528803 1.3752378
-0.21210632 0.019682268 1.2787107 -0.7553762 0.39643133 0.2605598 -0.051989645 0.054050103
-0.29546887 -0.9700986 0.046602637 0.02500241 -0.2289104 -0.31041816 -0.25975618 0.3127353
-0.22704661 0.1553413 -0.10818213 0.08820552 0.13813409 -0.2010935 -0.07482256 -0.295522
-0.25814024 -0.010513961 -0.030960679 0.14538786 -0.2311192 0.1677129 0.23407689 -0.24518406
0.6683295 -0.6984155 -0.120278776 -0.13054913 -0.30038628 -0.4517313 -0.05840741 -1.5102985
-0.15938628 0.041949753 -0.9637149 0.041293275 -1.2209096 -0.14457011 0.25986475 -0.3456335
-0.08131301 0.9124256 -0.24613538 0.017944776 -1.0593297 0.5357207 -0.31025067 -0.014567508
-0.19054125 0.012205003 0.23347618 0.48000035 -0.053720176 -0.09828947 0.73337555 -0.017076258
0.6581746 -0.03725641 -0.32941806 -0.27937165 -0.23322351 -1.1291014 -0.29836786 0.12987928
0.4782903 0.24751453 1.0889875 0.12196153 -0.5487502 -0.038394276 -0.21016568 -0.075754166
0.22660783 -0.1791924 0.9463547 0.22546755 -1.0393249 -0.084990725 -0.17309266 -0.5821044
-0.28737688 -0.9944962 0.17690757 0.009356466 -0.49212763 -0.32694402 0.64074194 -0.5254305
-0.37503988 -0.19454573 -0.14395893 0.361705 -0.08822432 -0.031697817 -0.20406806 0.115611106
-0.07306387 0.17821237 0.07364675 -0.10308771 -0.26069278 0.19244568 0.29060194 -0.28073707
0.28617132 0.6891408 0.029317789 -0.67721874 -0.20252992 -0.18388693 -0.026255427 -0.55370855
-0.28160554 -0.0024334877 -0.14295244 -0.19316071 0.30753645 0.3065025 -0.1883781 0.14182502
-0.1441839 -0.10078822 -0.19815636 -0.28587037 0.16834795 -0.09908827 -0.22643799 0.2272915
-0.24051356 -0.29938763 -0.13275394 -0.053850055 0.252888 -0.24249718 -0.2652982 0.28472677
-0.19312663 0.06909999 -0.226361 0.23450783 -0.2101758 0.31004557 -0.0061479807 -0.064753085
-0.28902233 -0.7769159 -0.09092444 -0.3863935 0.247313 -0.30563304 0.2606932 -0.17581943
-0.07563652 -0.78475726 0.52594846 0.018142322 1.1582557 -0.3900591 -0.06968028 0.39981583
-0.33372048 -1.124032 -0.14546923 0.10320625 0.13004903 0.40205732 0.94908834 -0.042775035
0.029950673 0.01021183 0.13312358 -1.3283381 -0.08886464 -0.15051953 -3.004934 0.25733086
-2.8674147 0.28314796 0.2592314 0.2019212 0.25965548 0.115926296 -0.3061771 0.005937701
0.10417917 -2.8778217 -0.17127545 0.0122796055 0.12866835 0.1372899 0.08312274 0.05280906
0.10510856 -0.73442596 2.1137905 -0.6904958 -0.4273214 -0.7929562 -0.3503344 -0.62648296
-0.17940821 -0.8083738 -0.01313898 -0.015463962 -0.80629 0.19445534 -1.2489947 -0.14402242
0.3958821 -0.2542055 0.39694923 1.1076676 -0.0042008758 -0.011791339 0.16999795 -0.5808943
1.065847 0.047958072 -0.10375771 0.33711848 -0.48834133 -1.0382649 -0.2677991 0.0070206863
1.6893594 -0.68634117 -1.364611 0.2580809 -0.07265367 -0.18579495 0.21918952 -0.6787726
0.08289391 0.014175536 0.7580578 -0.87325454 -0.39654166 0.57765484 -0.32366914 -0.5598465

feet.0.0.bias f4 [128]
00000000: 76f0 4d3d 0f6f b3be c0f1 a63b 1aac 18be
00000010: 65f8 08bf 6d14 253e c372 fb3d fc9d c8bd
00000020: 1866 083e 59d3 a1be d765 3ebe 58de 0a3e
00000030: b5db 14be e821 89be def3 183e c26b 2f3e
00000040: 236b e63d 13b7 73bd 0eba b0bc 0400 ebbd
00000050: 648c 603d 5668 04be db62 013e ba4d 3bbe
00000060: a5ae c7be d2b6 69bd ab6c 9abe aedf 80be
00000070: 536b 57bb dcf6 d03d 8903 b8be fa57 703d
00000080: 7313 09bf 0414 7bbd cdad d4be df7c 71be
00000090: 8875 57be 161e b6be 0f96 55be 3068 f3bd
000000a0: a693 1b3e 5f90 15bf fee2 f33d 64f4 1b3e
000000b0: baa6 5f3e a000 f33d 0e9b d73e d422 c53c
000000c0: 1ffc ef3d fc97 1dbe 8ec0 8b3e 4ce7 a83d
000000d0: f65b 313d 84ff 8bbe 26fc 593e d62e 9bbe
000000e0: b8a4 8cbd 9027 fcbd 7785 a8bd ca02 33be
000000f0: dada 7bbe c0c4 c8be 8177 64be e26c 443e
00000100: 7fc1 eebd 0d14 dcbd c0c9 bd3a c267 8b3e
00000110: be09 4bbe 22a7 873e 4ebb bcbe 31d5 9dbe
00000120: 1154 c43d b257 1f3e 399e c93e 3086 4bbe
00000130: 38f7 48bd dc29 dd3d 7bfa 7b3e de15 c13a
00000140: 6ec5 87be f8be 483d 07b5 603e 8af1 c4bd
00000150: 16b7 d93c 0f0f 93be 10a9 bd3e 3b1c 13be
00000160: fb2a e7be 2757 dbbe feb5 aebe ba01 32be
00000170: 3ff3 423d a84d 1cbe 6330 98be e2d7 173d
00000180: d310 0bbf 3d0a 39be 799c 0dbe a1e3 553e
00000190: 5aea d73d db4d 033e 01f7 87be 7674 4ebe
000001a0: 6935 e53d ba77 3cbe 0041 4dbe 00ec 56ba
000001b0: 516d 74be 9668 063e 6546 23be 3924 653e
000001c0: fb29 cd3d a9df f0bd c720 c43d b74e a3be
000001d0: 499d 703e a859 8d3e 6ec7 b93e c7d8 97be
000001e0: c7b3 093c 31a2 63be 150b 12be d787 2d3e
000001f0: 2796 a7be b67c e7be 307b aabe aca9 1b3c
0.05027815 -0.35045668 0.005094737 -0.14909402 -0.5350402 0.16121073 0.122777484 -0.09795758
0.13320196 -0.31606558 -0.18593536 0.1356138 -0.14536937 -0.2678368 0.14936778 0.1713095
0.112509035 -0.059500765 -0.021573093 -0.11474612 0.054821387 -0.12930426 0.12635367 -0.18291369
-0.3900043 -0.057059117 -0.30161032 -0.25170654 -0.0032870367 0.10203335 -0.35940197 0.05867765
-0.535453 -0.061298385 -0.4153885 -0.23582791 -0.21040928 -0.3556983 -0.20858024 -0.118851066
0.15193042 -0.5842342 0.1190853 0.15229946 0.21840945 0.118653536 0.42110485 0.024064459
0.1171801 -0.15390009 0.27295345 0.082472414 0.04330059 -0.2734338 0.21287593 -0.3030917
-0.06867355 -0.123122334 -0.082285814 -0.17481533 -0.24595204 -0.39212608 -0.22311212 0.1918216
-0.11658 -0.10746012 0.0014479682 0.27227598 -0.19827935 0.264947 -0.36861652 -0.30826715
0.09586347 0.15560797 0.39378527 -0.19875407 -0.04906389 0.10799 0.2460727 0.0014731248
-0.26517814 0.049010247 0.21944056 -0.096163824 0.02657656 -0.28722426 0.37043047 -0.14366238
-0.4514998 -0.4283993 -0.34123224 -0.17383471 0.04759526 -0.15263999 -0.29724416 0.037071116
-0.54322547 -0.18070312 -0.13829221 0.20887615 0.10542746 0.12822668 -0.26555637 -0.20161614
0.11191828 -0.18405047 -0.20044327 -0.0008198619 -0.23869826 0.13125834 -0.15944822 0.22377099
0.10017773 -0.1176141 0.09576564 -0.31895992 0.234975 0.27607465 0.36284965 -0.29657575
0.008404679 -0.2222984 -0.1426204 0.1694635 -0.32731745 -0.45212334 -0.3329711 0.009500902

feet.1.0.weight f4 [128, 10]
00000000: 69a3 833e de1a 293e bec6 013e 2500 8c3e
00000010: 471f 8e3e f405 3a3e b0ca f33c 9077 fb3c
00000020: c08e 27bc c8fb d8bd b1bd 45be 8700 00be
00000030: 0e0d 5c3e 34ad 3ebe c0ad 883b 0eca 383e
00000040: f0a2 58be 9e42 a9bd 127b 003e c094 abbd
00000050: 1f75 8bc0 97c0 983d 0c95 05c0 4d93 af3f
00000060: e6fc 233f 862f f5be 0fea c33e 98e2 9340
00000070: e47b 93be 81c3 6fbb e21d 2dc0 3fa3 36c0
00000080: 8eae 10c0 b19f fcbf cc94 773e a2e5 b7be
00000090: d6ae 833e ecf7 0b40 c6fa 633e 73ea cb3d
000000a0: 7cb2 97bf 5ccf c4bf f030 36c0 94a5 50bf
000000b0: 77cb fbbe d14c 5cbf 0a27 00bf ed6b c43f
000000c0: 4714 8d3e da1a f43c 80b5 8140 820c 1fbf
000000d0: 0865 d3be b2fa f3bf f028 02bf b2af afbe
000000e0: 028a 64be 2d5c a53e 2824 5fbe 8c7a c0bc
000000f0: 6070 1f3e a0ea 7ebd 63ed 92be 6a02 b2bd
00000100: fdf5 9b3e b50b 74be 4097 2e3d 2327 35be
00000110: 46bc 1e3e 7ccb c3bd 02b8 febf 3156 41c0
00000120: a310 23c0 8ec3 c6bf d798 cf3d 342b 05bf
00000130: e872 00bd f681 ab3f 6ce2 d73d 93be f03b
00000140: 8776 403e 8bf9 033e 6c59 0e3e e776 14be
00000150: 5461 70be 9624 433e a8e1 613d 447a 673e
00000160: 14ff 70be 5757 73bd d14c 8bbe 801d 86be
00000170: 10c1 0a3e b037 5bbe 1b9b 953e a41a ed3d
00000180: be61 523e da81 6bbe 1e3f f0bd 3d17 2abe
00000190: 222d 5e3e d634 4dbe 524f 64be 3278 f3bd
000001a0: 2858 9e3d d8b8 4ebe 2e19 203e 0cb4 90be
000001b0: b00c 84bc 1940 16be 2d7c cbbf 7540 143f
000001c0: 5f38 a03f a2b0 2f3f 59f5 733e f611 3fbb
000001d0: fe4e 84bd fb4a 5ebf 0894 6dbd 8619 d9ba
000001e0: c2b1 153e 365b 053e 2cbe 3b3e 7018 6abd
000001f0: 3135 8abe 8ef4 693e 8468 f33d 5574 73be
00000200: e88a 87be 8821 a3bd e8bf 74be 2c5f 9fbe
00000210: 56fa 53be c07d a2bd 326a 083e 2cc4 84be
00000220: 6ee4 543e 5334 92be a5c1 03be 0445 9ebd
00000230: e2b8 a43f 492a 16bc 1917 17bf 090d 3cbe
00000240: 3ccb 62be 70f8 9fbe aba7 a0be 51cd cebf
00000250: e055 08bc c20c 11bb c16b 973e 4e21 183e
00000260: dce4 7dbe 8e71 4c3e 609b 57bd f45b e93d
00000270: 0828 36be 3aa5 633e 83cc 09be de0d 95be
00000280: 7997 7b3e c0a2 483e b9c1 a03e bbb2 52be
00000290: 74a2 5cbe 8077 f63d 08e9 77be c094 f0bc
000002a0: 4f0c 6cbe 2687 d5bc a7c1 953e 0065 39bd
000002b0: 391b 943e 3d3f a13e 9dc9 8cbe e8cb d8bd
000002c0: ee7e 48be 207d 6ebc 0004 bdbb b5ee 4abe
000002d0: 2822 e9bd f3e3 5cbf a096 2b3d 56d8 1d3f
000002e0: ff05 f23c 3436 8cbe ea7b 4e3e 6dfd 5a3f
000002f0: 2e43 383e b4b0 9abc b827 bc3d f7cb 903e
00000300: a1c5 5cbe ce74 5cbe 023b 013e 00ae 883a
00000310: e16b 913e c8f9 0e3e 6427 ff3d bbd7 5dbe
00000320: 5a15 57be 80c8 ed3d f0a1 b83c 7660 e6bd
00000330: e0b8 44be e958 8cbe 5dc0 853e 30b1 85bc
00000340: 842b 81be 90c0 56bd d47e f8bd 0313 31be
00000350: f65c c6bd 5ad1 7d3e 281f 74bd c041 4abe
00000360: d623 c8bd 5cc8 273e 010a 97be 460e f2bd
00000370: 4929 79be ecfa b33d a8a5 263e 0173 91be
00000380: 3030 a4bc 94ae 98be 18f0 2abe 9470 e93d
00000390: 9908 3ebe c859 62bd 9405 b23e 7467 a63f
000003a0: d1b1 2740 c0da 133f 7ecf 19be 735d 893d
000003b0: 35d1 6d3e 270f d8bf 48a4 de3d b721 a3bb
000003c0: d105 b6bf f980 b33f adcf 1d40 85b7 d13c
000003d0: c2e8 dc3e 1d6e b53b c3d1 813e 9815 3abe
000003e0: 28d0 f73d cf99 aabc 0085 5cbb 2022 503c
000003f0: c07c 433c 4e0d 263e 2f4b 14be e893 653d
0.2571061 0.16514155 0.1267347 0.2734386 0.27758238 0.18166333 0.029759735 0.03069666
-0.010226905 -0.105948985 -0.19310643 -0.12500201 0.21489355 -0.18620759 0.0041711032 0.18045828
-0.21155906 -0.08264659 0.12546948 -0.08377981 -4.358047 0.074586086 -2.087222 1.3716828
0.6405777 -0.4788782 0.3826451 4.6214104 -0.2880546 -0.0036585035 -2.704949 -2.8537138
-2.260654 -1.9736234 0.24177855 -0.35917383 0.25719327 2.187007 0.22263631 0.09956827
-1.1851344 -1.5375781 -2.846737 -0.8150265 -0.4917867 -0.8605471 -0.5005957 1.5345436
0.27554533 0.02979796 4.053406 -0.6212846 -0.41288018 -1.9060881 -0.50843716 -0.34313732
-0.22318271 0.32296887 -0.21791136 -0.023495935 0.15570211 -0.062235475 -0.28696737 -0.08691867
0.30461112 -0.23832591 0.042624712 -0.1769071 0.15501508 -0.09560296 -1.9899905 -3.0208857
-2.5478904 -1.5528429 0.10136574 -0.5201905 -0.031359583 1.3399036 0.105412334 0.007346937
0.18795215 0.12888162 0.13901299 -0.14498483 -0.23474628 0.19056925 0.055146843 0.22605234
-0.23534805 -0.059409466 -0.27207044 -0.26194382 0.1355021 -0.21407962 0.292199 0.11577347
0.20545098 -0.22998753 -0.11730789 -0.16610427 0.21696904 -0.20039687 -0.22295883 -0.1188816
0.07731658 -0.201877 0.15634605 -0.28262365 -0.016119331 -0.14672889 -1.589727 0.57910854
1.2517203 0.68628895 0.23824061 -0.0029154993 -0.06460379 -0.8683316 -0.0580025 -0.0016563393
0.1461859 0.13023075 0.18334264 -0.05715221 -0.26993707 0.22847196 0.11885169 -0.23774846
-0.26473165 -0.0796538 -0.23901331 -0.31127298 -0.20700964 -0.07934141 0.1332176 -0.25930917
0.20790264 -0.28555545 -0.12866838 -0.077280074 1.2868922 -0.009165355 -0.5901962 -0.18364348
-0.2214784 -0.3124423 -0.3137792 -1.6156408 -0.008321255 -0.0022132848 0.29574397 0.14856455
-0.24794334 0.19965193 -0.05263841 0.11394492 -0.17788708 0.22230998 -0.13456921 -0.29112142
0.24569501 0.19593334 0.313978 -0.20575993 -0.21546346 0.120345116 -0.24209988 -0.029367805
-0.2305157 -0.02606542 0.29249308 -0.045262337 0.2892702 0.3149356 -0.2749757 -0.10585767
-0.1957967 -0.014556199 -0.005768299 -0.19817622 -0.11383468 -0.8628532 0.041891694 0.6165823
0.029543875 -0.27385104 0.20164457 0.8554295 0.17994377 -0.018883087 0.09187263 0.28280613
-0.21559764 -0.21528932 0.12620166 0.0010427833 0.28402618 0.13962471 0.12458685 -0.21664326
-0.21004239 0.11610508 0.022538155 -0.11248867 -0.19211149 -0.27411583 0.26123324 -0.016319841
-0.25228512 -0.052429736 -0.121335655 -0.17292409 -0.096857 0.24786893 -0.059600025 -0.19751644
-0.0977246 0.16385025 -0.2949982 -0.11819129 -0.24332155 0.08788094 0.1627413 -0.28408054
-0.020042509 -0.29820693 -0.16693151 0.11398426 -0.18557967 -0.055261403 0.3476988 1.3000321
2.620228 0.5775566 -0.15020558 0.06707277 0.23224337 -1.6879624 0.10871178 -0.0049783844
-1.4220525 1.4023734 2.4658005 0.025600204 0.4314633 0.005536808 0.25355348 -0.181723
0.121002495 -0.020825295 -0.003364861 0.0127034485 0.011931598 0.16216013 -0.14481805 0.056049258

feet.1.0.bias f4 [128]
00000000: fe9f febd ad9f 9d3e 2b89 0b3f eec5 b63e
00000010: 8b20 c2be cbe1 ddbe 20e6 c23c c729 033f
00000020: e8a4 74bd c391 26be 8054 1f3b 1499 b5be
00000030: 0046 75bb f379 93be 939e 6dbd 9272 443e
00000040: 78a4 8b3e 94c6 86be ee69 4e3e 4073 9dbc
00000050: 8c18 c23d 94ae 85bd 12e6 373e 0778 103d
00000060: 6443 503e 1078 2dbd 7780 8f3e 893c b23e
00000070: 71c2 143f 2df5 e5bd f792 9c3e 4fc3 21be
00000080: d3e8 99bc 40bd 873c 3ae7 c2bd 7602 c8bd
00000090: 7325 65be 006b 223b 9fe9 853e 3191 69bf
000000a0: 7e24 283e 37a5 903e a01f 77bc f9e1 853e
000000b0: d185 5dbf 4593 04bf ec1e ed3d 5154 0fbf
000000c0: 08e9 bdbe b420 f63d 5028 9b3c 6329 80be
000000d0: 0875 3a3d 175d 023e 195a 7cbe 01fa 8d3b
000000e0: a0f9 bc3c 7219 373e 036d 91be ed9f dcbd
000000f0: f11f ffbe c28c 2d3e 9ed4 21be d1d5 44bf
00000100: 9f96 d6be 8120 0d3e d96c 903e f4eb 073e
00000110: 6903 c3bb 6c79 31be dba5 9c3e b114 033e
00000120: a9c9 953e 393e 9dbe 386e 0ebd 0db9 93be
00000130: dd46 03bf de37 703e 037f 973e 54d7 0abf
00000140: 62fe 31bf e466 2a3e 69ea f2be 0d4a 79be
00000150: caef 743e bb34 a53e d642 33bf 9627 803e
00000160: ec25 e13f 0010 3cbc e927 343f e317 29be
00000170: f04c 27bf 3159 803e c473 d9be d6f2 443e
00000180: fea5 96be 349a 5dbe bba0 1abf d83f e6bd
00000190: 1b2b 053f 3474 75be 2919 e43c 19b5 51be
000001a0: 91d6 803e d249 9dbd 91c7 d63d 968b 573e
000001b0: 9df2 5b3e 102e 243d ba30 dc3d bcfa 773e
000001c0: 5234 80bd 8026 0a3c fc7b 30be 00da a53a
000001d0: cc7c a4bc fecf b93e 3c2b c43d b544 0cbf
000001e0: f46c 873d 6d59 9b3e 2fcf 4fbe e027 393e
000001f0: 481b 88be 78aa 0c3e 06c9 3a3d 2a1f 61be
-0.1243286 0.30785885 0.54506177 0.35697883 -0.37915453 -0.4333633 0.023791373 0.5123562
-0.05972758 -0.16266541 0.002431184 -0.35468352 -0.0037425756 -0.28803977 -0.058012556 0.1918433
0.27273917 -0.26323378 0.20157596 -0.019219995 0.09477338 -0.06527439 0.17958859 0.035270717
0.20338207 -0.04235083 0.28027698 0.3481181 0.58109194 -0.11228404 0.30580875 -0.1579716
-0.018787777 0.016569734 -0.09516759 -0.097660944 -0.22377567 0.0024783015 0.261548 -0.9123717
0.1642017 0.2825105 -0.015083224 0.26148966 -0.8653231 -0.51787215 0.115781635 -0.5598803
-0.3709185 0.120179564 0.018940121 -0.25031576 0.045521766 0.12730823 -0.24643745 0.0043327813
0.02306825 0.178808 -0.28403482 -0.10772691 -0.49829057 0.16948226 -0.15803763 -0.7688876
-0.4191179 0.1378193 0.28208044 0.13273603 -0.0059513343 -0.17331475 0.30595288 0.12800862
0.29255417 -0.30711535 -0.03477308 -0.2885212 -0.51280004 0.23458812 0.2958909 -0.54234815
-0.6952878 0.16640812 -0.47444466 -0.24344654 0.23919597 0.32266793 -0.7002386 0.25030202
1.7589698 -0.011478424 0.703734 -0.16513018 -0.6535177 0.25068048 -0.42471135 0.1923326
-0.29423517 -0.21640855 -0.60401505 -0.11242646 0.520189 -0.23970109 0.027844029 -0.2047924
0.251637 -0.07680096 0.10487283 0.21049342 0.21479268 0.04008299 0.10751481 0.24216741
-0.06259979 0.008432031 -0.17234796 0.001265347 -0.020079039 0.36291498 0.09578559 -0.5479234
0.06612578 0.30341664 -0.20293878 0.18081617 -0.26583314 0.13736904 0.045601867 -0.21984544

feet.2.0.weight f4 [128, 10]
00000000: b2d8 29be f0e3 c63d ecec b5bd e77d 9c3e
00000010: 23e0 8d3e b0e5 dabc 9e19 33be 0018 283a
00000020: 4f9e 8a3e 5f74 2ebe 274e 42be c812 043d
00000030: 14bb 99bd 6ebc 103e cf2e 79be a625 96be
00000040: c80c 223d db3c 97be 5898 9cbe 3eae a1be
00000050: 2e55 87be af0f 53be 5c4c 3b3e 82a6 1f3e
00000060: c005 15bd c09d 6b3c 8ca9 fdbd 7f4f 9fbe
00000070: 283c e13d ea56 98be 6e4e 1b3e 8e70 7ebe
00000080: e973 96be 2392 98be 722e 41be 9447 89be
00000090: c5dd 93be 2238 253e 4cf0 2e3e 17a5 0cbe
000000a0: fd1d 95be be81 0fbe 6bf2 87be acaa df3d
000000b0: 7d93 87be 800d 403c 146c 983d 409c 60be
000000c0: 58d7 1d3d 1ace 46be 0554 0b3f a457 adbe
000000d0: a609 c3bf c7a3 26bd 8c10 783e 489f 49bf
000000e0: 33ee 60bd 16ce 983f 1655 3f3e 83e6 0ebc
000000f0: 9880 873f 2624 a03e 72cd 49c0 1088 dcbd
00000100: 654d c93e c599 963d 146a d73e ba9e bcbd
00000110: fd5a 2bbe 9a18 9fbc c13a 76bf 78ec b8be
00000120: ada4 d6bd 6351 36be 0bf5 09bf cee8 3bbd
00000130: db32 0fbf 8370 2fc0 7b4e 8b3e 8c3a 7d3b
00000140: b5d2 0ebf c57d dbbd b10e 993f 0f14 29bd
00000150: 3a02 0dbf 6ace c9bd fa9f 7fbe 8cba 83bf
00000160: 2ecd 373e e0bd 3c3a f563 50bf 110b 4ebe
00000170: 1e09 bd3f 0661 78be 7b14 9a3c 2cf8 093e
00000180: e6d1 25be 8cd2 b2bf 340e 043e 4e19 13bb
00000190: eac0 463e fbe8 94be 5072 a73c 1eac 3e3e
000001a0: 84fd 01be ba36 3e3e 1c4e 9e3d c4b4 97bd
000001b0: d5fa 77be d71a a1be 287f 43bd 6803 20bd
000001c0: bfb1 973e c04e e0bd 3604 603e 5660 0b3e
000001d0: b068 8abd 703a 923c 6aa3 473e 6879 8dbe
000001e0: 9056 533d fa7b c0bd 248a f3bd a28d b1bd
000001f0: 02bb 453e c0b0 f13d 10ce fc3c f4db 043e
00000200: 2d47 62be 2079 38bc 199d 23be d4f3 54be
00000210: 871b 8e3e aed1 773e b818 723d 1872 d33d
00000220: c68a 293e 6827 0bbd e268 8abd 8180 4fbe
00000230: f423 f23d 2035 babc 92b2 fbbd fdc7 863e
00000240: 7773 8a3e 24c1 8cbe f53b 81be e85a 83bd
00000250: 9df1 863e 505b b8bc c1e6 30bf 744d c5bf
00000260: acff f0c0 2f56 8cbf 1f07 de3e 02b9 003e
00000270: ab76 073f 5626 18c0 e099 263d 794d 49bb
00000280: 37ed 863e adf8 20be 63ff 8e3e 084a da3d
00000290: a422 b6bd 6f3e 0abe cb2c 943e a06d d83c
000002a0: 7407 2e3e 3843 e1bd 8448 6e3e c13d 21bf
000002b0: 7c25 f2c0 a5ad a1bf f9a5 28be c2d9 943e
000002c0: e569 cc3e 4b53 0fc0 80bb bd3c 7645 8abb
000002d0: 7e1a 533e cb2e 68be 1874 52bd c021 8e3c
000002e0: 4a8d 613e a642 743e 82bd 7a3e f9b6 913e
000002f0: 6816 283e 8ce3 c8bd c463 5abe d0b8 ffbc
00000300: 2dd3 963e b0bf f33d 4dba 893e 2812 3a3e
00000310: 4c3d c23d 4cd5 75be 00e2 b6ba b08d aabd
00000320: 4829 7cbd d0aa 46be 002e 1cba 1522 94be
00000330: 40b0 c1bb b8eb 053d 0886 70be a6fa 63be
00000340: f164 973e d93a 94be 48aa edbd a41b 0f3e
00000350: 3258 7a3e af1d 8b3e c6cb 4c3e b66e 503e
00000360: faaa babd 7a54 473e 200f 7abd 9898 79be
00000370: dcd3 2fbe e91e 8fbe 3405 87bd 951d 8d3e
00000380: 1a9f 2c3e 2526 17be 8056 b93d 650d 833e
00000390: 5e0c 8dbd f34f 38be 684c 24be f269 76be
000003a0: d858 84bd a057 53be b689 6f3e 00c0 aab7
000003b0: 606a 6dbd 6406 223e 7cff a03d 0628 eebd
000003c0: 1b81 fa3e 57f7 03be 69ce c93f b204 873e
000003d0: a052 013e 653a 7cbf 64b7 253e 52ed 3f40
000003e0: ce7a b3bd 1f01 b4bc 396b 64be 4992 37be
000003f0: 3311 1e3e 120c fe3d 172e 5c3d e9b0 00bf
-0.16586569 0.097114444 -0.0888308 0.30564806 0.27710065 -0.026720852 -0.17490241 0.00064122677
0.27073905 -0.1703658 -0.18975125 0.032244474 -0.075063854 0.1413438 -0.24334262 -0.29325598
0.03956297 -0.29538617 -0.3058498 -0.3157825 -0.26432174 -0.20611452 0.18290848 0.15590861
-0.036382437 0.014380872 -0.12385854 -0.31115338 0.10997802 -0.2975381 0.15166637 -0.24847624
-0.29385307 -0.29798993 -0.18865374 -0.26812422 -0.28880134 0.16134694 0.17083853 -0.13734852
-0.29124442 -0.14014336 -0.26552138 0.10921225 -0.26479712 0.011721969 0.07442489 -0.21934605
0.038535446 -0.19414559 0.5442508 -0.33855927 -1.523732 -0.040683534 0.24225062 -0.7875867
-0.054914664 1.1937892 0.18684801 -0.00872195 1.0586119 0.3127758 -3.1531644 -0.10768139
0.3931686 0.07353548 0.4207312 -0.09209962 -0.16733928 -0.01942091 -0.961834 -0.3611791
-0.10480628 -0.17804484 -0.5388953 -0.045876317 -0.55936974 -2.7412422 0.27208313 0.0038639633
-0.55790263 -0.10717348 1.1957608 -0.041278895 -0.5508152 -0.098538235 -0.2496337 -1.0291305
0.17949364 0.00071999244 -0.8140252 -0.20121409 1.4768407 -0.24255762 0.018808594 0.13473576
-0.16193351 -1.3970504 0.12896043 -0.0022445503 0.19409528 -0.29084 0.02044025 0.18620345
-0.12694365 0.18575564 0.07729742 -0.07407525 -0.24216779 -0.3146579 -0.047728688 -0.03906575
0.29627797 -0.1095252 0.21876606 0.13610968 -0.06758249 0.01785013 0.19495931 -0.27631688
0.051596224 -0.09398647 -0.118915826 -0.086695924 0.19309619 0.118012905 0.030859977 0.1297453
-0.22097464 -0.011259347 -0.15977897 -0.20796138 0.27755377 0.2420108 0.059105605 0.10324496
0.16556844 -0.033973128 -0.06758286 -0.20263864 0.11823264 -0.02273041 -0.12289919 0.26324454
0.27041218 -0.27491105 -0.25241056 -0.06413823 0.2635621 -0.022504479 -0.691021 -1.5414262
-7.53121 -1.0963801 0.43364808 0.12570575 0.5291545 -2.3773398 0.04067409 -0.0030716343
0.26352856 -0.15719862 0.2792922 0.106586516 -0.08893326 -0.13500379 0.28940424 0.02641946
0.1699503 -0.10999149 0.2326985 -0.62984854 -7.5670757 -1.2631117 -0.16469564 0.29072386
0.3992454 -2.2394588 0.023160696 -0.004219706 0.20615575 -0.226741 -0.051380247 0.017350078
0.22026554 0.2385355 0.24486354 0.2845991 0.16414797 -0.09809026 -0.2132712 -0.031216055
0.2945799 0.11901796 0.2689995 0.18170989 0.09484348 -0.24007148 -0.0013952851 -0.08327806
-0.061562806 -0.19401097 -0.0005957782 -0.28932253 -0.005910903 0.032695502 -0.23488629 -0.22263584
0.295692 -0.28951147 -0.11604744 0.13975388 0.24447706 0.27171084 0.19999608 0.20354733
-0.091146424 0.19465819 -0.06104958 -0.24374616 -0.17170662 -0.2795327 -0.06592789 0.27561632
0.16857567 -0.14760645 0.09049702 0.25596157 -0.068871245 -0.17999248 -0.16044772 -0.24063852
-0.06462258 -0.20638895 0.23392376 -2.0354986e-05 -0.057962775 0.1582275 0.0786123 -0.116287276
0.48926625 -0.12887321 1.5766116 0.2637077 0.12629175 -0.98526603 0.16183239 2.99886
-0.087636575 -0.02197319 -0.22306527 -0.17926897 0.15436248 0.12404646 0.053754892 -0.50269943

feet.2.0.bias f4 [128]
00000000: 605a 383d 4a2b 7f3e 694f a13e 425f 85be
00000010: a7b2 933e 50bf d63d 9cb4 3d3e c2ca 16bf
00000020: 1035 adbe 298e a93d e7da a1be b859 fcbd
00000030: 1f27 6ebe b649 dcbd d77a 1abe e897 aabe
00000040: 4442 fd3d c2f1 32be 4000 ccbc 08bb 27bd
00000050: 30b0 353d f814 56be ba8c 6d3e 007d 103e
00000060: fec4 263d f3d6 06bf 3e16 2cbe 668b 72bd
00000070: 0809 7ebd 6a54 063e a0cd f1bd 8969 1bbe
00000080: ce14 6bbe 3c5b b5be 0889 133d e7ce 823e
00000090: 79ab 86be a0d4 53bc e059 2dbc 80cb 3a3b
000000a0: a20f f0be 4812 9e3d a3e0 3cbe 943b d53d
000000b0: b735 4cbe 0a2e c0be 0527 d53c a8d2 babe
000000c0: c7c3 1bbe f8cc 803d 712c 41be 84b8 b73d
000000d0: 3b6e 37be 8b73 ebbe 81cc 6abe 4563 64be
000000e0: b057 953c a82c 993d 6822 81bc f104 9ebe
000000f0: 0489 ccbd 91a3 82bd 58c7 91be 6be2 cebe
00000100: 606e ecbe d68c 403e 6e7d 2dbe 6f5a a03e
00000110: 01c6 2bbd 70e1 a23d 69f1 43be 523b 6f3e
00000120: b3c0 803e 702b bb3d 90a5 94bd c4e9 11be
00000130: b5ba d33d 845b 903e d00a e1bd 1c80 d13d
00000140: 0996 11bd 0516 04bf 9405 1dbe ed85 90be
00000150: 72a5 7bbe 2d66 853e 4146 993d f3f8 b8be
00000160: 4c4d 8fbc 4a75 783d 8076 85bc 22bb 83bc
00000170: 49c5 90be 080b b53d c899 863d 1c15 ebbd
00000180: 5d16 87be 2808 f1be 8063 e13c 7169 1dbe
00000190: e214 7c3e 1409 d9bd 8511 04be 8855 3b3d
000001a0: b781 25bc 5617 9e3d 4506 d6be 1614 5e3e
000001b0: 7df2 63be 002d 02bc 49e6 953c f167 43be
000001c0: 7a68 5a3e ce50 6a3e e7f1 1fbe 8ef3 9cbc
000001d0: 50c3 f43d c6c0 09be 2852 c93d 73b1 7dbe
000001e0: 200f cebe f717 9ebe 8010 e13b 0e66 323e
000001f0: 49d7 13bf dd9e 933e 1bbb 01bf 002e 9abe
0.045008063 0.24918857 0.31505898 -0.26049238 0.28847238 0.10485709 0.18525928 -0.58903134
-0.33829546 0.08279068 -0.31612322 -0.123218 -0.23257111 -0.10756247 -0.15085922 -0.3331902
0.12366155 -0.17475036 -0.024902463 -0.04094985 0.04435748 -0.20906436 0.23198214 0.14110184
0.04071521 -0.52671736 -0.1680536 -0.059214972 -0.06202033 0.13118139 -0.11806798 -0.15176977
-0.22957155 -0.3542117 0.036019355 0.2554848 -0.26302698 -0.012929112 -0.01058051 0.0028502643
-0.46886927 0.077183306 -0.18445067 0.10411754 -0.19942366 -0.37535125 0.026019583 -0.36488843
-0.15211402 0.06289095 -0.1886461 0.089707404 -0.17913143 -0.4598659 -0.22929575 -0.22303493
0.01823029 0.07479221 -0.015763476 -0.30863145 -0.09987071 -0.06378854 -0.284724 -0.40407118
-0.4617796 0.18803725 -0.16942379 0.31318995 -0.041936878 0.07953155 -0.1913506 0.23362473
0.25147018 0.091391444 -0.07258141 -0.14249331 0.10338346 0.2819482 -0.109883904 0.10229513
-0.035543475 -0.515961 -0.15334159 -0.28227177 -0.24574831 0.26054516 0.07484103 -0.36127433
-0.017492913 0.06065873 -0.016291857 -0.016080443 -0.28275517 0.08839995 0.065723 -0.11478636
-0.2638425 -0.47076535 0.027513266 -0.15372254 0.24617341 -0.10597435 -0.12897308 0.045735866
-0.010101727 0.07719295 -0.41801658 0.2168735 -0.2226047 -0.007945299 0.018298285 -0.19082619
0.21328917 0.22882387 -0.15619622 -0.019159105 0.119513154 -0.13452443 0.09830123 -0.24774723
-0.40245914 -0.3087766 0.006868422 0.17421743 -0.57750374 0.2883214 -0.50676125 -0.3011322

body.0.0.weight f4 [64, 128]
00000000: 945a 71bd 0fbb f6bc 9397 9abd 9024 5abc
00000010: 7484 d7bc b888 76bd 9887 ffbd f994 1dbd
00000020: 39ef 19be 45eb 9b3c 981d 213c 9d4c c63c
00000030: 4812 613c d27c 1e3d 47c1 4bbd 6e2a 683e
00000040: 6b3e b7bd a24d 033c dddb 0dbe 2e99 94be
00000050: 9b15 ecbc 1baa 8abd 99b8 32be e6bb bbbd
00000060: 6d72 82be 5bca e6bd d1f6 dbbc b555 aa3c
00000070: b786 49be 16a8 58bd a9d6 3cbb a4fe 27be
00000080: 5cad 51bd 6058 a53a ec1d 4abd 868e cabd
00000090: 17d7 46bd 0e1f 6e3d 4de6 a3bd 5006 d8bb
000000a0: 75b9 95bd 2d4f fdbd 53a1 57be 7003 063d
000000b0: b895 103d e0fd d1bb aaf8 85bd 5abb c0bd
000000c0: 053e a53d a0b1 9fbd acab 9c3d 6958 9f3d
000000d0: 0dc0 18be ed45 2f3d f937 d5bc cc9d 783c
000000e0: 4c01 b0bc 98c0 cdbc 0583 41bd 5543 1abe
000000f0: cb02 96bd 5d0b 4ebc 4aa0 3c3d c3fd 463c
00000100: 641a 6abd 5001 04be ec2a 60bc 162b 0fbe
00000110: 34a2 073d bdde c6bd b1b1 7abc 9bac 9bbd
00000120: 9c0a 2cbd cc01 da3c dd8c 9dbd 6cd2 a33c
00000130: d4d9 973a 9e41 8abd 792e 273d faca 083d
00000140: 1788 513d df0a 1cbd a45b a5bd 688c 28bc
00000150: 00a6 82be fa8c 40bd 5ce5 a5bd 3130 813d
00000160: 1aeb 4fbe 8e40 2e3b 43f2 8ebd dc45 b0bc
00000170: e6e8 a0bd e37a cbbd d85b 8c3c 520e dbbd
00000180: 5a8c 4abd 4a0f 9fbd 248d f6bd ef0f 123c
00000190: fcea 0cbe 5754 eabd b766 5b3b 57b5 da3c
000001a0: ba19 43be f7cb a13d 9cbc 25bc 0a1a 1c3d
000001b0: 60ae 653b 6360 01bd 9ce7 17bd 1786 363e
000001c0: 12d7 29be 1451 aabd 4eaa 82bd de31 18be
000001d0: 82cb af3c c2f3 bfbd 5be9 e0bc 0ebf 74bd
000001e0: 3b70 053e 2305 a8be 8410 ebbd 2c6f 86bc
000001f0: 1751 2c3d 084d 973b 26a7 23be e6f6 d5bd
00000200: a113 38bd 3fae 87bd 3da4 ebbd 255e 68bc
00000210: 6679 663c bfd5 093d 1f4f 19bd ba62 f1bd
00000220: cf15 b23c 56da 0abd d2dc adbd 962c 34bd
00000230: d438 99bc ac50 3cbd 3b8c 733d 2a9a d3bd
00000240: c286 563d 3498 5ebd d440 9a3d b95c b13d
00000250: 10b9 59bd ad91 a63d 743d c53c 301e dbbd
00000260: a41b f2bd 58d2 3cbd bc69 b03d dbe5 083d
00000270: 3bb0 e2bd b904 97bd 5cdf d33c 29c1 9f3d
00000280: c426 01bd 68d6 3ebd 585f 3cbc 4078 aabd
00000290: 7c99 6fbd f3b6 a03d 2899 6bbc 4112 253b
000002a0: aca7 10bd fad6 3f3d 7060 68bc 200c 063b
000002b0: 5108 da3c 007b 153d 9a3b c1bc 7ee6 9cbd
000002c0: 9402 01bd c39f 74bd 1603 1e3d ab65 46bd
000002d0: 36a9 76bd 8057 87bb d3c5 eb3c a814 84bd
000002e0: 2295 2e3d e057 71bd b355 c4bd 503b 5e3d
000002f0: 78e5 49bd 8fbe 36bd dea0 603d baa3 06bd
00000300: dd51 bdbc 3341 2d3d 481a 6e3c e53f 3dbd
00000310: e365 243d 473d aebd 6e23 dc3c b1b2 16be
00000320: 1389 a2bc 916b 0dbd 31f4 9c3d 5ee8 b0bd
00000330: 85f0 9e3d 8dc9 3dbd ea4e 2a3d 0d88 0f3d
00000340: 419c e2bc 537e 15be d89e 26bd 2c87 f1bc
00000350: 9ead 9fbd 90fc 90bd a89a dcba 449e 85bd
00000360: d842 19bc b50c 8b3d 0c33 06bc d193 823c
00000370: 44b2 363d aa06 353d e964 953d ffe9 093d
00000380: c2e7 b3bd bbf6 883d bb96 06bd c8af 5dbc
00000390: a201 42bd 9d76 a83d 2229 483d fe0c 273d
000003a0: 68a9 e23c d7f4 2dbd 4937 ccbd e1ce a33d
000003b0: 6ed8 e2bc e9b3 b43b 5900 8cbd a013 0ebc
000003c0: bd50 d7bd 8800 de3c 7e59 833b 7800 93bc
000003d0: e449 8d3d 5c96 a839 c033 33bc 8444 02bd
000003e0: 7b93 a5bb 305c 74be 787e 63bc f44b ed3c
000003f0: 9c51 42bc 8a79 0abd fb5d a4bd b985 a9bd
-0.058924273 -0.030118493 -0.07548442 -0.013314381 -0.026308276 -0.06018898 -0.12477034 -0.03847215
-0.15032662 0.019033084 0.009833716 0.024206454 0.013737269 0.038693257 -0.04974487 0.22672436
-0.08947452 0.008014115 -0.13853402 -0.29023117 -0.028818896 -0.06770726 -0.17453231 -0.09166698
-0.25477925 -0.11269065 -0.02685109 0.020792821 -0.19680296 -0.052894674 -0.002881447 -0.16405731
-0.05119072 0.0012614839 -0.049344942 -0.098904654 -0.04854497 0.058135085 -0.08002911 -0.0065925494
-0.07310764 -0.12368617 -0.21057634 0.032718122 0.035299033 -0.006408438 -0.065415695 -0.094107345
0.0806847 -0.07797551 0.07649931 0.07780535 -0.14917012 0.042791296 -0.026027666 0.01517434
-0.021484993 -0.02511625 -0.04724409 -0.15064748 -0.073247515 -0.012575951 0.0460513 0.012145462
-0.057154074 -0.12891126 -0.013682108 -0.1398128 0.033113673 -0.09710453 -0.015301154 -0.07601281
-0.042002305 0.026612185 -0.07692883 0.019997798 0.0011585304 -0.06750797 0.040815804 0.0333967
0.051155176 -0.038096305 -0.0807412 -0.010287382 -0.25517273 -0.047009446 -0.081003875 0.0630802
-0.20304528 0.002658877 -0.069798015 -0.021517687 -0.07856922 -0.09935548 0.017133638 -0.10696091
-0.049450256 -0.07766588 -0.12038639 0.008914932 -0.13761514 -0.11441868 0.003347797 0.026697798
-0.19052783 0.07900231 -0.010115769 0.03811077 0.0035046563 -0.031586062 -0.037086114 0.17824589
-0.16585949 -0.08316246 -0.06380139 -0.14862773 0.021459345 -0.09372665 -0.027455023 -0.059752516
0.13031094 -0.3281642 -0.114777595 -0.016410433 0.04206952 0.004617337 -0.15981731 -0.10447483
-0.044940595 -0.06625032 -0.11505935 -0.014182602 0.01406703 0.03365111 -0.03742897 -0.11786409
0.021738915 -0.033899628 -0.08489384 -0.043987833 -0.018703856 -0.045975372 0.059459906 -0.10332139
0.05237461 -0.05434437 0.07531896 0.086602636 -0.053155005 0.08133254 0.024077155 -0.10699117
-0.11821678 -0.046099037 0.08613917 0.033422332 -0.110687695 -0.07373948 0.025863342 0.07800514
-0.03153111 -0.046591192 -0.011497341 -0.08323717 -0.058495983 0.07847395 -0.014379777 0.0025187882
-0.035316154 0.046835877 -0.014183149 0.0020454004 0.026615294 0.036494255 -0.02358799 -0.076611504
-0.0314966 -0.059722673 0.03857716 -0.048436802 -0.060219966 -0.004130304 0.028780853 -0.06449252
0.042622693 -0.058921695 -0.09586658 0.054255784 -0.049291104 -0.044615325 0.054840915 -0.032870986
-0.023110325 0.042298507 0.014532633 -0.046203513 0.04013623 -0.085077815 0.026872363 -0.14716603
-0.019840753 -0.03452641 0.07663763 -0.086380705 0.07760719 -0.046334792 0.041579165 0.035041858
-0.027662398 -0.1459897 -0.04067883 -0.0294834 -0.07796787 -0.070794225 -0.0016830759 -0.065243274
-0.009354316 0.06789533 -0.008190881 0.015939625 0.0446036 0.04419581 0.07294638 0.03367042
-0.08784439 0.06687685 -0.03285859 -0.013530679 -0.04736484 0.08225749 0.048867352 0.040783875
0.02766867 -0.042469826 -0.09971482 0.079984434 -0.027691092 0.005514611 -0.06836004 -0.008671671
-0.105134465 0.027099863 0.004008471 -0.01794456 0.06898859 0.00032155483 -0.010937631 -0.031803623
-0.0050529814 -0.23863292 -0.013885133 0.028966881 -0.0118602775 -0.033807315 -0.08025738 -0.08277459

body.0.0.bias f4 [64]
00000000: a2d7 233e 10b5 35be 9428 bcbd 68a3 c9bd
00000010: 72f2 8d3d 7f3b 66be 6706 08bd 81b8 64be
00000020: 0253 13bc 5811 92bd 509d 11bd 048d adba
00000030: 71cb c6bd f696 60be 3c1c 1abb 7597 37be
00000040: 836e d9bd ce3e 4fbd fd00 1ebe cb98 febd
00000050: 3216 6fbd 6458 cfbd 1dbc 6fbc a306 1ebe
00000060: aa39 30be 98ac c3be 5d64 d0bd 5e9e b2bd
00000070: 5dfb 693d b493 5abd 6099 94be dbeb 08bb
00000080: b2ca e53d 5978 dcbd d3bd 09be f3bf 58bc
00000090: 8457 cabc 1768 c3bd af44 16be 3b66 d5bd
000000a0: 16d9 a3be 1f18 e8bd e0cf c2bd 9eb8 083a
000000b0: 0300 773e 59d0 403f fc64 2ebe f686 17be
000000c0: cd68 32be 73dd 07be 3713 febc 5cb7 983d
000000d0: 3830 f2bc af16 3fbe ec17 13bd 8d3a 48bd
000000e0: 96ec e4bd 6d3a c9bd 664a a6bd e434 39bd
000000f0: b138 7bbc 4560 21bd 61b6 abbc 24db 3abe
0.16000226 -0.17744851 -0.09187427 -0.098456204 0.069310084 -0.22483633 -0.03320923 -0.22336008
-0.008991959 -0.07132214 -0.035550416 -0.0013240878 -0.09706772 -0.21932587 -0.0023515364 -0.1792887
-0.106167816 -0.050597005 -0.15430064 -0.12431487 -0.058370776 -0.10124281 -0.014632252 -0.15432219
-0.17209497 -0.38217616 -0.10175393 -0.087216124 0.057124484 -0.053363517 -0.29023266 -0.0020892534
0.11220302 -0.10765142 -0.13451318 -0.013229358 -0.024699934 -0.09541338 -0.14674638 -0.104198895
-0.3200156 -0.11332726 -0.09512305 0.00052154984 0.24121098 0.75317913 -0.1703071 -0.14797577
-0.17422791 -0.1326807 -0.031015022 0.07456848 -0.029564008 -0.18660997 -0.035911486 -0.048883963
-0.11177938 -0.09825597 -0.08119659 -0.045216456 -0.0153333405 -0.03939845 -0.020960988 -0.18247658

heads.0.weight f4 [1, 64]
00000000: e8a4 053c cf9d abbc e86a 3d3d f01c 113c
00000010: 4c63 c13e 0c23 13bd 8864 8d3c 3c42 8abc
00000020: 200b 273d 4122 393c ac7c f6bb 47ac d03c
00000030: cd55 b63c 5c49 b4bc 3cf3 0e3e ba21 b0bd
00000040: 5fc4 9e3c 480c ea3a ae8f c7bd 7b25 cabc
00000050: df8d 663c a242 3ebd 3cd4 e9bb 3854 b93a
00000060: 073b 193d 48d1 80be 84e9 823d c348 083c
00000070: 592c 10bf fd68 8dbb 80ae c23a ea0f 8ebc
00000080: ddb8 813e 10e2 a63c 06a0 aebd 6238 c53c
00000090: c8ec d83d 2a1c 923d 7911 2dbc 8ee8 64bd
000000a0: 001a e4b9 1a55 efba a66e 973d f138 893d
000000b0: 7d9d 82bf 6c97 923e 6eb5 1a3d fe5d dbbe
000000c0: 620a 49be ec10 02bd 9200 c53d b904 ab3d
000000d0: b43d 3a3c 34aa 3cbd 4368 b9bc 59b6 7c3a
000000e0: a207 d5bd 1755 b7ba 2ff6 9fbc 2bbf a03c
000000f0: 1bd6 b63d d7c0 5a3d e4a2 bbbd fed2 503c
0.0081569925 -0.020949272 0.046244532 0.008856997 0.3777107 -0.035922095 0.017259851 -0.016877286
0.040782094 0.011299671 -0.0075221863 0.025472773 0.02225771 -0.022007637 0.13959974 -0.08600183
0.019380746 0.0017856443 -0.097442016 -0.024676075 0.014071911 -0.046450265 -0.007135896 0.0014139479
0.03740981 -0.2515967 0.06392196 0.008318129 -0.5631767 -0.004315494 0.001485303 -0.017341573
0.25336352 0.020371467 -0.08526616 0.024074737 0.105920374 0.07134278 -0.010563248 -0.055885844
-0.0004350692 -0.0018259615 0.073941514 0.06700314 -1.0204312 0.2863115 0.03777068 -0.42845148
-0.19632867 -0.03175442 0.096192494 0.0835051 0.01136725 -0.046060756 -0.022632724 0.0009640209
-0.104018465 -0.0013987151 -0.01952657 0.019622406 0.08927556 0.053406563 -0.09161928 0.012745617

heads.1.weight f4 [1, 64]
00000000: e03e 503c 306f 9fbc 9257 ea3d 9a2c 163c
00000010: e0e8 543d 18e9 c3bc c6cb c73c fd14 f6bc
00000020: 346e 12bd 2980 05bc dda3 a33d 1cb7 973d
00000030: 041d d8bd 6221 6c3b 1b93 863c d8b3 493d
00000040: d78c b83d 407b ebbc f836 c4bd 4958 dfbb
00000050: 563a b1bd a95f b33d b00e ebbc 1b95 e6bd
00000060: ef33 5c3b 12ca 8b3d 7e4c 98bc 2cc7 943d
00000070: c84d 30bc 7805 bc3d a82b 81bd 3856 b13d
00000080: 1c4a 443c d0ab e43d 049c c7bd 1431 3bbd
00000090: 7521 74bc 0e04 ecbd 0c08 3fbd 00b9 8f3c
000000a0: c52f 0c3b cc43 ad3d b45e 04bd b388 8f3d
000000b0: 2cf9 a63a a93d 6e3c 6d79 033e 99ab da3c
000000c0: 25e1 31bd 54a1 e53d 35b6 863c 5422 a3bd
000000d0: 8823 c43c 058a a8bd 90a4 00bc 1602 cab7
000000e0: 90c0 d43d 347c 99bd a852 1fbd 8df7 a3bd
000000f0: 68a0 b6bd 9e02 debc 7309 89bc 4433 debc
0.012710303 -0.019462198 0.11442484 0.009165907 0.0519799 -0.023914859 0.024389159 -0.030039305
-0.03574963 -0.008148232 0.07990239 0.07407972 -0.10552409 0.003603064 0.016427567 0.049243778
0.09011238 -0.028745294 -0.09580797 -0.0068159443 -0.08653705 0.0875848 -0.028693527 -0.11258908
0.003360029 0.06825651 -0.018591162 0.072645515 -0.010760732 0.091807306 -0.06307155 0.08659023
0.01198056 0.11165583 -0.097465545 -0.0457011 -0.014900555 -0.11524211 -0.046638533 0.01754427
0.0021390778 0.08460197 -0.03231688 0.07008495 0.0012739054 0.014541068 0.12839289 0.026693152
-0.043427605 0.112124115 0.016444305 -0.07965532 0.023942724 -0.0822945 -0.007851735 -2.4081248e-05
0.10388291 -0.07494393 -0.038897187 -0.08006201 -0.08917314 -0.027100857 -0.016728139 -0.027124055

heads.2.weight f4 [1, 64]
00000000: f4b8 51be 47ae 3ebd 2be1 f13c 1fad 4e3d
00000010: 85ac 50bf a882 bc3c d61b 853c 106c b63c
00000020: a4c5 693e cb2c debc 3eda ed3a 1cef 483d
00000030: 6f40 693d b06d 233c 8124 993e 8b89 39bd
00000040: db1f 6e39 8064 233b 6b66 c93c 935b 2fbc
00000050: 773f 2bbc 5637 1ebd cee0 f83c 80a5 7a3a
00000060: 4b43 fdba d396 7fbc 4323 aabc 9efd 223d
00000070: 0fce 15be 8bd8 7ebc eb7c 22bc 3e90 37bc
00000080: 1813 b5be f926 ff3c e6c9 3abd d133 8b3c
00000090: a3da a3bd e0ce b73b f749 2fbb d37f 153b
000000a0: e263 41bb fc45 99bd d552 da3c 7131 703c
000000b0: 5cb1 1cbf ee22 8d3f 1eb6 b539 42e9 8f3d
000000c0: 61f7 593b ba31 cc3c a424 73bd 86f8 15bd
000000d0: 71eb f5bc 0c6b b33c ac1d b13d 016e 3d3d
000000e0: fd52 873b 7fa5 463c 8401 8d3d c239 d83d
000000f0: 7366 da3c fac9 5d3d 7a28 613d 1794 013c
-0.2048071 -0.046552923 0.029526314 0.05045807 -0.81513244 0.02301152 0.016248625 0.022268325
0.228293 -0.027120968 0.0018146706 0.049056157 0.056946214 0.009974882 0.29910663 -0.045297187
0.00022709316 0.002493173 0.02458497 -0.010702985 -0.010452143 -0.03862699 0.030380633 0.00095614046
-0.0019322423 -0.015599924 -0.020768767 0.03979265 -0.14629386 -0.015554558 -0.009917478 -0.011203824
-0.3536613 0.031146513 -0.0456027 0.016992481 -0.08000686 0.005609378 -0.0026746967 0.0022811785
-0.0029508998 -0.074840516 0.026650826 0.014660225 -0.6120813 1.1026285 0.00034658698 0.07026912
0.0033259022 0.024926055 -0.059361115 -0.036613964 -0.030019494 0.02190163 0.086482376 0.046247486
0.004129766 0.012124418 0.06885055 0.105578914 0.02666018 0.054147698 0.054970242 0.0079088425
