saved/MH_TD3/checkpoint_critic_local_TD3_2.pth (torch, 55979 bytes, 11 tensors)

feet.0.0.weight f4 [128, 10]
-0.5081458 -0.520699 -0.9254148 -0.48517865 0.10395517 -0.27219582 0.110989906 0.8620792
-0.21210632 -0.009863877 -0.28978893 -0.8593549 -0.68280107 -0.002195004 0.2723962 -0.32079154
0.027458703 0.5706705 0.046602637 0.003178831 -0.2289104 -0.31041816 -0.25975618 0.3127353
-0.22704661 0.1553413 -0.10818213 0.08820552 0.13813409 -0.2010935 -0.07482256 -0.295522
-0.25814024 -0.010513961 -0.030960679 0.14538786 -0.2311192 0.1677129 0.23407689 -0.24518406
0.24831566 0.085048236 -0.011770866 -0.3546901 -0.29903603 -0.44051185 -0.056772787 -0.98820657
-0.15938628 0.039339766 -1.3040926 -0.0010165557 -0.6282869 0.12967299 0.27695805 -0.4766895
-0.07369403 1.2497332 -0.24613538 0.013855391 -1.2103654 -0.4518459 -0.7875764 -0.04709157
-0.0970505 0.097875096 0.32658097 0.254211 -0.053720176 -0.019205803 0.043631285 0.17758295
0.679248 -0.06423106 -0.5409245 -0.24847998 -0.4400149 -1.6968035 -0.29836786 0.04020497
0.4718352 -0.3604631 1.1708733 -0.49910817 -0.7437686 -0.42823425 -0.40081558 0.102350235
0.22660783 -0.08199982 0.5243145 -0.7709232 -0.8882854 -0.7808774 -0.10728782 -0.5716032
-0.19271097 -0.360199 0.17690757 -0.0075883847 -0.18760772 -0.3960437 -0.34818077 -0.43123573
-0.24385914 -0.23896813 -0.0035558655 0.0944832 -0.08822432 0.014886553 -0.32941583 0.07761895
-0.04246475 0.3008728 0.1296515 -0.016426887 -0.20369294 0.18284754 0.29060194 -0.41564173
-0.7816493 0.37540886 0.88036454 0.7501145 -0.33858117 0.37112305 -0.117303506 -1.7598958
-0.28160554 0.01582658 -0.14295244 -0.19316071 0.30753645 0.3065025 -0.1883781 0.14182502
-0.1441839 -0.10078822 -0.19815636 -0.28587037 0.16834795 -0.09908827 -0.22643799 0.2272915
-0.24051356 -0.29938763 -0.13275394 -0.053850055 0.252888 -0.24249718 -0.2652982 0.28472677
-0.19312663 0.06909999 -0.226361 0.23450783 -0.2101758 0.31004557 -0.0061479807 -0.064753085
-0.14111382 0.5332398 0.0014410337 -0.3039934 0.4254428 -0.1159269 0.43958044 -0.3627595
-0.07563652 -0.30248925 -0.05626502 -0.061267573 0.2814635 -0.57402176 -0.12168992 0.24460858
-0.3823068 -1.027407 -0.14546923 0.012285099 0.14144081 0.17380805 0.50182945 0.04133407
-0.06440656 -0.2262393 0.03082143 -0.62413436 -0.08886464 -0.0105036 -2.9944227 0.070750296
0.14726633 0.1462552 0.11471949 0.057412703 0.11514452 0.115926296 -0.3061771 -0.10344213
0.47795287 -1.350513 -3.8853943 0.3171365 0.2618553 0.27106023 0.21663001 0.05280906
0.10510856 -0.13892913 0.52814025 -0.17447509 -1.1615815 -0.53456026 -0.30388805 -0.603961
-0.118071094 -0.98061633 -0.01313898 0.04012303 2.0276933 0.44467488 -0.38867867 0.29577604
-0.022539165 -0.37488756 -0.0133010745 -1.4382561 -0.0042008758 0.00029803184 0.5085348 -0.10909235
0.80610436 -0.32313913 -0.07230105 0.19499344 -0.44064265 -0.8741679 -0.2677991 0.0009771779
-0.16025299 -0.2717314 0.07289642 0.4633257 -0.12298651 -0.25203001 0.17321809 -0.13792482
0.08289391 -0.039585803 0.32512015 0.1005179 0.55729544 0.3535324 -0.48595348 -0.082658514
00000000: d815 02bf 884c 05bf fce7 6cbf 5669 f8be
00000010: 73e6 d43d 405d 8bbe ad4e e33d 39b1 5c3f
00000020: 6632 59be 199c 21bc 375f 94be affe 5bbf
00000030: 0dcc 2ebf 0eda 0fbb 8477 8b3e ca3e a4be
00000040: 13f1 e03c 7617 123f 68e2 3e3d ef53 503b
00000050: 7d67 6abe 21ef 9ebe c3fe 84be d71e a03e
00000060: e87e 68be ca11 1f3e 988e ddbd 18a5 b43d
00000070: 0673 0d3e 74eb 4dbe 923c 99bd a94e 97be
00000080: f52a 84be c042 2cbc 40a1 fdbc 8ee0 143e
00000090: 83aa 6cbe eebc 2b3e dab1 6f3e 8811 7bbe
000000a0: 7646 7e3e c52d ae3d 97da 40bc f199 b5be
000000b0: 401b 99be c58a e1be 958a 68bd 1bfb 7cbf
000000c0: 2836 23be bc22 213d 82ec a6bf f33d 85ba
000000d0: 69d7 20bf ffc8 043e 72cd 8d3e a510 f4be
000000e0: e5ec 96bd 42f7 9f3f ea0a 7cbe b901 633c
000000f0: 41ed 9abf 5958 e7be 9b9e 49bf 17e3 40bd
00000100: 6ac2 c6bd bd72 c83d 9f35 a73e f227 823e
00000110: b009 5cbd 7d55 9dbc b8b6 323d 4ed8 353e
00000120: 32e3 2d3f 938b 83bd 077a 0abf 8971 7ebe
00000130: a249 e1be db30 d9bf acc3 98be f7ad 243d
00000140: 6294 f13e 9f8e b8be 2ddf 953f 1b8b ffbe
00000150: 9e67 3ebf 8541 dbbe b337 cdbe 009d d13d
00000160: e20b 683e 86ef a7bd 7a39 063f 395b 45bf
00000170: ac66 63bf 95e7 47bf b7b9 dbbd 9654 12bf
00000180: 0656 45be 016c b8be 4227 353e fca7 f8bb
00000190: 3d1c 40be 3dc6 cabe c044 b2be eeca dcbe
000001a0: 36b6 79be 10b4 74be 8609 69bb 6880 c13d
000001b0: f4ae b4bd bbe6 733c 31a9 a8be aff6 9e3d
000001c0: 85ef 2dbd 000c 9a3e 5dc3 043e ae91 86bc
000001d0: e294 50be 633c 3b3e c7c9 943e fece d4be
000001e0: 2b1a 48bf 9735 c03e 925f 613f 8107 403f
000001f0: 835a adbe d703 be3e d23c f0bd 4444 e1bf
00000200: 9a2e 90be bea6 813c 2062 12be eccb 45be
00000210: 6b75 9d3e e5ed 9c3e 30e6 40be 943a 113e
00000220: f2a4 13be 0e6a cebd 80e9 4abe 9a5d 92be
00000230: 6863 2c3e caee cabd 5cdf 67be 1abf 683e
00000240: 3049 76be 5649 99be a6f0 07be e091 5cbd
00000250: 897a 813e 2e51 78be 2ad5 87be b5c7 913e
00000260: fdc2 45be 4c84 8d3d 2ecb 67be d222 703e
00000270: 5338 57be 4bbe 9e3e 0075 c9bb 449d 84bd
00000280: 2480 10be 6782 083f 11e1 bc3a 06a5 9bbe
00000290: a4d3 d93e 156b edbd b010 e13e 9dbb b9be
000002a0: 52e7 9abd dfdf 9abe 2676 66bd b5f3 7abd
000002b0: fc1b 903e 17f3 12bf 9138 f9bd ac7a 7a3e
000002c0: b8bd c3be 1382 83bf e3f5 14be 7147 493c
000002d0: dcd5 103e bdfa 313e e577 003f ea4d 293d
000002e0: 96e7 83bd 46ab 67be 397d fc3c 45c7 1fbf
000002f0: aafe b5bd 4b17 2cbc 9fa4 3fc0 88e5 903d
00000300: fccc 163e ecc3 153e 0df2 ea3d 9529 6b3d
00000310: e4d0 eb3d c46a ed3d 3fc3 9cbe 78d9 d3bd
00000320: 3db6 f43e 9cdd acbf 4daa 78c0 b75f a23e
00000330: e611 863e 68c8 8a3e 42d4 5d3e 504e 583d
00000340: 2843 d73d 7043 0ebe 3334 073f 99a9 32be
00000350: b4ae 94bf f1d8 08bf 3797 9bbe 309d 1abf
00000360: 42cf f1bd ac09 7bbf e044 57bc 0c58 243d
00000370: bac5 0140 6dac e33e e400 c7be f56f 973e
00000380: 0ea4 b8bc 43f1 bfbe c0ec 59bc c718 b8bf
00000390: 80a7 89bb 2841 9c39 562f 023f cf6b dfbd
000003a0: db5c 4e3f 7e72 a5be 9312 94bd 5cac 473e
000003b0: ea9b e1be 78c9 5fbf f71c 89be a614 803a
000003c0: 5c19 24be 6120 8bbe b84a 953d 0739 ed3e
000003d0: 5ae0 fbbd 140a 81be 1560 313e 2a3c 0dbe
000003e0: 48c4 a93d b924 22bd 2676 a63e 54dc cd3d
000003f0: eaaa 0e3f 3302 b53e e5ce f8be de48 a9bd

feet.0.0.bias f4 [128]
0.07524632 -0.192031 0.005094737 -0.14909402 -0.5434545 0.2128203 0.22942792 -0.2625368
0.057572808 -0.22131367 -0.14995787 0.19344296 -0.29168695 -0.2678368 0.14936778 0.1713095
0.29201064 -0.1560419 -0.13420412 -0.2592565 0.1885893 -0.2057856 -0.23612164 -0.28721517
-0.46916544 -0.34417388 -0.3488866 -0.290194 -0.1421799 0.15427567 -0.42639032 0.06975939
-0.36903718 0.1902683 -0.32163337 -0.4118702 -0.21040928 -0.33491457 -0.20480938 -0.118851066
0.044109594 -0.39882046 0.1349214 0.15956117 0.16693716 0.118653536 0.41397938 -0.104041316
0.07692408 -0.23339689 0.1855571 0.082472414 -0.007533015 -0.2734338 0.26361403 -0.3030917
-0.31257284 -0.039591726 -0.11048232 -0.22153652 -0.24595204 -0.3134659 -0.24243891 0.1918216
-0.061848484 -0.17592151 0.07088181 0.36086637 -0.20615864 0.22022717 -0.2700189 -0.19668475
0.037823875 0.15620424 0.17323297 -0.19875407 -0.04906389 0.10799 0.116638556 0.043098796
-0.26517814 -0.03737799 -0.0553833 -0.0946254 0.02765628 -0.28722426 0.12188732 -0.22735497
-0.5249031 -0.51817113 -0.3591275 -0.187067 0.046931386 -0.23167326 -0.29724416 -0.009229584
-0.54207397 -0.3813275 -0.053127915 -0.051011767 0.07754729 0.17570868 -0.10421842 -0.025856705
-0.0038919984 -0.10786356 -0.20044327 -0.002397867 -0.2486261 0.009132567 -0.15944822 0.13568191
-0.054449733 -0.059000295 0.10345179 -0.31689304 0.23355505 0.15631936 0.2795919 -0.29657575
-0.031761814 -0.3105555 -0.38304725 -0.025972808 -0.4487491 -0.3509561 -0.32323915 -0.272143
00000000: be1a 9a3d c6a3 44be c0f1 a63b 1aac 18be
00000010: d61f 0bbf 91ed 593e 27ef 6a3e 396b 86be
00000020: 77d1 6b3d 0da0 62be 8e8e 19be e915 463e
00000030: fe57 95be e821 89be def3 183e c26b 2f3e
00000040: 6b82 953e 73c9 1fbe ce6c 09be 45bd 84be
00000050: 8e1d 413e 76b9 52be dfc9 71be de0d 93be
00000060: 7436 f0be 8f37 b0be 44a1 b2be 4f94 94be
00000070: 9c97 11be 71fa 1d3e d54f dabe 03de 8e3d
00000080: 71f2 bcbe b1d5 423e 21ad a4be a7e0 d2be
00000090: 8875 57be ec79 abbe 8db9 51be 3068 f3bd
000000a0: 43ac 343d 3232 ccbe d628 0a3e 0164 233e
000000b0: 93f1 2a3e a000 f33d 1bf5 d33e 9d13 d5bd
000000c0: 5f8a 9d3d 98ff 6ebe ae02 3e3e 4ce7 a83d
000000d0: 83d7 f6bb 84ff 8bbe 6bf8 863e d62e 9bbe
000000e0: 8c09 a0be ef2a 22bd 8e44 e2bd 78da 62be
000000f0: dada 7bbe 9a7e a0be e841 78be e26c 443e
00000100: d654 7dbd c524 34be 7b2a 913d 7ac3 b83e
00000110: 401b 53be 3b83 613e eb3f 8abe ba67 49be
00000120: 35ed 1a3d 01f4 1f3e fc63 313e 3086 4bbe
00000130: 38f7 48bd dc29 dd3d 32e0 ee3d 5d88 303d
00000140: 6ec5 87be aa19 19bd 99d9 62bd f6ca c1bd
00000150: 6c8f e23c 0f0f 93be 0fa0 f93d becf 68be
00000160: 0d60 06bf dda6 04bf 8fdf b7be 7e8e 3fbe
00000170: 203b 403d c13b 6dbe 6330 98be ae37 17bc
00000180: 5cc5 0abf 5c3d c3be a89c 59bd b7f1 50bd
00000190: 1dd1 9e3d faec 333e 7870 d5bd 71d1 d3bc
000001a0: e610 7fbb 92e7 dcbd 0041 4dbe 8825 1dbb
000001b0: d797 7ebe c3a0 153c 6546 23be 33f0 0a3e
000001c0: af06 5fbd 4baa 71bd 88de d33d ce3f a2be
000001d0: 0e29 6f3e 2f12 203e ab26 8f3e c7d8 97be
000001e0: ad18 02bd 2101 9fbe c51e c4be edc4 d4bc
000001f0: 71c2 e5be 85b0 b3be 9a7f a5be 5456 8bbe

feet.1.0.weight f4 [128, 10]
0.2571061 0.16514155 0.1267347 0.2734386 0.27758238 0.18166333 0.029759735 0.03069666
-0.010226905 -0.105948985 -0.19310643 -0.12500201 0.21489355 -0.18620759 0.0041711032 0.18045828
-0.21155906 -0.08264659 0.12546948 -0.08377981 0.26780036 -1.2710888 -0.95516366 0.23204155
0.40780145 -0.40944722 0.15432335 3.7070835 -0.2880546 0.026240816 2.2823956 -0.9332718
-1.710136 0.25401065 0.17571375 -0.5517219 0.18226577 3.374927 0.22263631 0.11111602
4.499723 -0.71061134 -2.1485994 0.27307385 -0.5212233 -0.7942954 -0.5180723 1.0966231
0.27554533 0.11158882 4.8907237 -0.17617245 -2.1186132 0.21927518 -0.3976417 -0.46223605
-0.083819285 0.72857845 -0.21791136 0.044855673 0.15570211 -0.062235475 -0.28696737 -0.08691867
0.30461112 -0.23832591 0.042624712 -0.1769071 0.15501508 -0.09560296 3.3022926 -1.4369292
-2.3585265 0.76123106 0.04046341 -0.7097292 -0.10253832 2.77201 0.105412334 0.07630163
0.23739927 0.19330819 0.1759062 -0.17360598 -0.21600917 0.12741736 -0.007995227 0.30053562
-0.23534805 -0.02297197 -0.27207044 -0.26194382 0.1355021 -0.21407962 0.292199 0.11577347
0.20545098 -0.22998753 -0.11730789 -0.16610427 0.21696904 -0.20039687 -0.22295883 -0.1188816
0.07731658 -0.201877 0.15634605 -0.28262365 -0.016119331 -0.14672889 -4.1399217 0.04699907
1.6196402 -0.006655985 0.39163187 0.34341288 0.09289393 -0.8593971 -0.0580025 0.06212734
0.1461859 0.13023075 0.18334264 -0.05715221 -0.26993707 0.22847196 0.11885169 -0.23774846
-0.26473165 -0.0796538 -0.23901331 -0.31127298 -0.20700964 -0.07934141 0.1332176 -0.25930917
0.20790264 -0.28555545 -0.12866838 -0.077280074 3.6410754 0.17377447 -1.7834498 0.111378655
-0.13482842 -0.76740974 -0.27299607 0.3318615 -0.008321255 0.1900503 0.29574397 0.14856455
-0.24794334 0.19965193 -0.05263841 0.11394492 -0.17788708 0.22230998 -0.13456921 -0.29112142
0.31175804 0.18091442 0.35298246 -0.051345494 -0.13861558 0.13894078 -0.21901482 0.02848172
-0.2305157 0.048706044 0.29249308 -0.045262337 0.2892702 0.3149356 -0.2749757 -0.10585767
-0.1957967 -0.014556199 -0.005768299 -0.19817622 0.5351679 0.027838934 0.13328153 0.32942265
-0.113958485 -0.14595008 0.106394 -0.5430551 0.17994377 -0.011634543 0.09187263 0.28280613
-0.21559764 -0.21528932 0.12620166 0.0010427833 0.28402618 0.13962471 0.12458685 -0.21664326
-0.21004239 0.11610508 0.022538155 -0.11248867 -0.19211149 -0.27411583 0.26123324 -0.016319841
-0.25228512 -0.052429736 -0.121335655 -0.17292409 -0.096857 0.24786893 -0.059600025 -0.19751644
-0.0977246 0.16385025 -0.2949982 -0.11819129 -0.24332155 0.08788094 0.1627413 -0.28408054
-0.020042509 -0.29820693 -0.16693151 0.11398426 -0.18557967 -0.055261403 -4.936543 0.26618284
2.3617773 -0.4586127 0.03968624 0.17349297 0.41281682 -1.0815206 0.10871178 0.06741747
-3.679075 -0.009240062 1.6949182 0.20270105 0.37373668 0.31547663 0.18895936 -0.29145253
0.121002495 0.20596099 -0.003364861 0.0127034485 0.011931598 0.16216013 -0.14481805 0.056049258
00000000: 69a3 833e de1a 293e bec6 013e 2500 8c3e
00000010: 471f 8e3e f405 3a3e b0ca f33c 9077 fb3c
00000020: c08e 27bc c8fb d8bd b1bd 45be 8700 00be
00000030: 0e0d 5c3e 34ad 3ebe c0ad 883b 0eca 383e
00000040: f0a2 58be 9e42 a9bd 127b 003e c094 abbd
00000050: 211d 893e 0ab3 a2bf 9b85 74bf 4d9c 6d3e
00000060: 5acb d03e 11a3 d1be f106 1e3e db40 6d40
00000070: e47b 93be fbf6 d63c c512 1240 e7ea 6ebf
00000080: bde5 dabf af0d 823e 4eee 333e a53d 0dbf
00000090: e1a3 3a3e cefe 5740 c6fa 633e cc90 e33d
000000a0: bbfd 8f40 a0ea 35bf a782 09c0 56d0 8b3e
000000b0: e46e 05bf f156 4bbf 63a0 04bf 255e 8c3f
000000c0: 4714 8d3e ae88 e43d cf80 9c40 8d66 34be
000000d0: 5c97 07c0 ac89 603e b197 cbbe 34aa ecbe
000000e0: 72a9 abbd 1e84 3a3f 2824 5fbe 95ba 373d
000000f0: 6070 1f3e a0ea 7ebd 63ed 92be 6a02 b2bd
00000100: fdf5 9b3e b50b 74be 4097 2e3d 2327 35be
00000110: 46bc 1e3e 7ccb c3bd c358 5340 4ced b7bf
00000120: 19f2 16c0 0ae0 423f f6bc 253d d0b0 35bf
00000130: 9cff d1bd 9d68 3140 6ce2 d73d 0744 9c3d
00000140: cb18 733e 95f2 453e c120 343e c4c5 31be
00000150: 8231 5dbe b279 023e 6afe 02bc cedf 993e
00000160: 14ff 70be b62f bcbc d14c 8bbe 801d 86be
00000170: 10c1 0a3e b037 5bbe 1b9b 953e a41a ed3d
00000180: be61 523e da81 6bbe 1e3f f0bd 3d17 2abe
00000190: 222d 5e3e d634 4dbe 524f 64be 3278 f3bd
000001a0: 2858 9e3d d8b8 4ebe 2e19 203e 0cb4 90be
000001b0: b00c 84bc 1940 16be 3d7a 84c0 1982 403d
000001c0: 5f50 cf3f 731a dabb f983 c83e d0d3 af3e
000001d0: 2c3f be3d 7301 5cbf 0894 6dbd 3d79 7e3d
000001e0: c2b1 153e 365b 053e 2cbe 3b3e 7018 6abd
000001f0: 3135 8abe 8ef4 693e 8468 f33d 5574 73be
00000200: e88a 87be 8821 a3bd e8bf 74be 2c5f 9fbe
00000210: 56fa 53be c07d a2bd 326a 083e 2cc4 84be
00000220: 6ee4 543e 5334 92be a5c1 03be 0445 9ebd
00000230: 6107 6940 eff1 313e 1548 e4bf 7e1a e43d
00000240: 7610 0abe f774 44bf 24c6 8bbe c0e9 a93e
00000250: e055 08bc 8c9c 423e c16b 973e 4e21 183e
00000260: dce4 7dbe 8e71 4c3e 609b 57bd f45b e93d
00000270: 0828 36be 3aa5 633e 83cc 09be de0d 95be
00000280: c09e 9f3e a141 393e 1eba b43e a74f 52bd
00000290: 3ef1 0dbe 7e46 0e3e 6c45 60be 7f52 e93c
000002a0: 4f0c 6cbe fd7f 473d a7c1 953e 0065 39bd
000002b0: 391b 943e 3d3f a13e 9dc9 8cbe e8cb d8bd
000002c0: ee7e 48be 207d 6ebc 0004 bdbb b5ee 4abe
000002d0: c300 093f 7a0e e43c f47a 083e 16aa a83e
000002e0: 1163 e9bd f073 15be 19e5 d93d a905 0bbf
000002f0: 2e43 383e cf9e 3ebc b827 bc3d f7cb 903e
00000300: a1c5 5cbe ce74 5cbe 023b 013e 00ae 883a
00000310: e16b 913e c8f9 0e3e 6427 ff3d bbd7 5dbe
00000320: 5a15 57be 80c8 ed3d f0a1 b83c 7660 e6bd
00000330: e0b8 44be e958 8cbe 5dc0 853e 30b1 85bc
00000340: 842b 81be 90c0 56bd d47e f8bd 0313 31be
00000350: f65c c6bd 5ad1 7d3e 281f 74bd c041 4abe
00000360: d623 c8bd 5cc8 273e 010a 97be 460e f2bd
00000370: 4929 79be ecfa b33d a8a5 263e 0173 91be
00000380: 3030 a4bc 94ae 98be 18f0 2abe 9470 e93d
00000390: 9908 3ebe c859 62bd 29f8 9dc0 1e49 883e
000003a0: 5c27 1740 49cf eabe 0a8e 223d 24a8 313e
000003b0: ba5c d33e 446f 8abf 48a4 de3d 2c12 8a3d
000003c0: f775 6bc0 a163 17bc 14f3 d83f dd90 4f3e
000003d0: 6a5a bf3e 2786 a13e 907e 413e 4439 95be
000003e0: 28d0 f73d 70e7 523e 0085 5cbb 2022 503c
000003f0: c07c 433c 4e0d 263e 2f4b 14be e893 653d

feet.1.0.bias f4 [128]
-0.1243286 0.30785885 0.3726286 0.23490533 -0.44652236 -0.44909889 0.023791373 0.40026593
-0.026417252 -0.16266541 0.002431184 -0.14639272 -0.0037425756 -0.28803977 -0.020432701 0.1918433
0.34834015 -0.26323378 0.078090094 -0.019219995 0.09477338 -0.06527439 0.17958859 0.2577767
0.23835345 -0.04235083 0.28027698 0.4220008 0.041537493 0.19421884 0.30580875 -0.1579716
-0.05870314 0.016569734 -0.09516759 0.1286587 -0.0007446604 0.0024783015 0.261548 -0.5631617
0.1642017 0.2825105 -0.015083224 0.26148966 -0.11368881 -0.244891 0.115781635 -0.17658688
-0.34570265 0.120179564 0.018940121 -0.25031576 0.045521766 0.15286496 -0.16603912 -0.22209607
0.02306825 0.178808 -0.28403482 -0.2249871 -0.44971657 0.16948226 0.040020213 -0.42331848
-0.022816487 0.17390056 0.28208044 0.13273603 -0.009203323 -0.17331475 0.30595288 -0.13533263
0.29255417 -0.30711535 -0.03477308 -0.2885212 -0.4309845 0.23458812 0.2958909 -0.0971838
-0.16399105 0.16640812 -0.6187435 -0.31229258 0.23919597 0.15299214 -0.46357217 0.28166297
0.05108082 -0.011478424 0.20431028 -0.15017213 -0.41570586 0.25068048 -0.44358984 0.1923326
-0.29423517 -0.21640855 -0.263673 -0.11242646 0.15458754 -0.23970109 0.28500408 -0.24899372
0.14749081 -0.21526602 -0.045737382 0.21049342 0.021380657 0.04008299 -0.21497399 -0.1603255
-0.11971449 0.008432031 -0.17234796 0.001265347 0.043810293 0.2733381 0.09578559 -0.22897694
0.06612578 0.30341664 -0.20293878 0.18081617 -0.26583314 0.13736904 0.3560518 -0.21984544
00000000: fe9f febd ad9f 9d3e 2dc9 be3e 068b 703e
00000010: 949e e4be 4af0 e5be 20e6 c23c a8ef cc3e
00000020: fe68 d8bc c391 26be 8054 1f3b f9e7 15be
00000030: 0046 75bb f379 93be 7b62 a7bc 9272 443e
00000040: a459 b23e 94c6 86be b3ed 9f3d 4073 9dbc
00000050: 8c18 c23d 94ae 85bd 12e6 373e 4ffb 833e
00000060: ed12 743e 1078 2dbd 7780 8f3e 7d10 d83e
00000070: 3823 2a3d 4ee1 463e f792 9c3e 4fc3 21be
00000080: b472 70bd 40bd 873c 3ae7 c2bd 1bbf 033e
00000090: 5035 43ba 006b 223b 9fe9 853e 5d2b 10bf
000000a0: 7e24 283e 37a5 903e a01f 77bc f9e1 853e
000000b0: aed5 e8bd b5c4 7abe ec1e ed3d 31d3 34be
000000c0: f0ff b0be b420 f63d 5028 9b3c 6329 80be
000000d0: 0875 3a3d a288 1c3e 2906 2abe 276d 63be
000000e0: a0f9 bc3c 7219 373e 036d 91be 0563 66be
000000f0: 4041 e6be c28c 2d3e 3cec 233d 33bd d8be
00000100: a4e9 babc fd12 323e d96c 903e f4eb 073e
00000110: 89c9 16bc 6c79 31be dba5 9c3e a394 0abe
00000120: a9c9 953e 393e 9dbe 386e 0ebd 0db9 93be
00000130: 00aa dcbe de37 703e 037f 973e 4d08 c7bd
00000140: 45ed 27be e466 2a3e f965 1ebf d0e4 9fbe
00000150: caef 743e f9a9 1c3e 5559 edbe 2136 903e
00000160: 1f3a 513d 0010 3cbc b736 513e b9c6 19be
00000170: 66d7 d4be 3159 803e 351e e3be d6f2 443e
00000180: fea5 96be 349a 5dbe 2600 87be d83f e6bd
00000190: 324c 1e3e 3474 75be 0eec 913e 36f8 7ebe
000001a0: d507 173e b26e 5cbe 1f57 3bbd 968b 573e
000001b0: 7d26 af3c 102e 243d 2422 5cbe 5e2c 24be
000001c0: df2c f5bd 8026 0a3c fc7b 30be 00da a53a
000001d0: 6c72 333d f9f2 8b3e 3c2b c43d ee78 6abe
000001e0: f46c 873d 6d59 9b3e 2fcf 4fbe e027 393e
000001f0: 481b 88be 78aa 0c3e 6c4c b63e 2a1f 61be

feet.2.0.weight f4 [128, 10]
-0.16586569 0.097114444 -0.0888308 0.30564806 0.27710065 -0.026720852 -0.17490241 0.00064122677
0.27073905 -0.1703658 -0.18975125 0.032244474 -0.075063854 0.1413438 -0.24334262 -0.29325598
0.03956297 -0.29538617 -0.3058498 -0.3157825 -0.26432174 -0.20611452 0.18290848 0.15590861
-0.036382437 0.014380872 -0.12385854 -0.31115338 0.10997802 -0.2975381 0.15166637 -0.24847624
-0.29385307 -0.29798993 -0.18865374 -0.26812422 -0.28880134 0.16134694 0.17083853 -0.13734852
-0.29124442 -0.14014336 -0.26552138 0.10921225 -0.26479712 0.011721969 0.07442489 -0.21934605
0.038535446 -0.19414559 0.21944334 0.24304417 -2.824952 -0.17755735 0.09525171 -0.17554863
-0.16832615 -1.2869928 0.18684801 -0.0011996091 0.8823161 0.02786651 -3.550981 -0.037732694
0.29271376 0.35719243 0.32974526 -0.9367899 -0.16733928 -0.016352374 -0.57214665 -0.7416022
3.4802291 0.105372235 -0.3040573 -0.721293 -0.38399038 0.510806 0.27208313 0.16646917
-0.11432621 0.025433963 0.04677031 -0.057607222 -0.4438495 -0.22052044 -0.13826832 -0.3798406
0.17949364 0.00019654684 -0.82640165 -0.40134218 1.7263045 -0.015968362 0.021839464 0.057085026
-0.16818382 -0.79134756 0.12896043 -0.001659115 0.19409528 -0.29084 0.02044025 0.18620345
-0.12694365 0.18575564 0.07729742 -0.07407525 -0.24216779 -0.3146579 -0.047728688 -0.03906575
0.29627797 -0.1095252 0.21876606 0.13610968 -0.06758249 0.01785013 0.19495931 -0.27631688
0.051596224 -0.09398647 -0.118915826 -0.086695924 0.19309619 0.118012905 0.030859977 0.1297453
-0.22097464 -0.011259347 -0.15977897 -0.20796138 0.27755377 0.2420108 0.059105605 0.10324496
0.16556844 -0.033973128 -0.06758286 -0.20263864 0.11823264 -0.02273041 -0.12289919 0.26324454
0.27041218 -0.27491105 -0.25241056 -0.06413823 0.2635621 -0.022504479 0.3605784 0.10027604
-3.3509438 -0.21508564 0.1959146 -0.15210734 0.24338892 -1.0563024 0.04067409 -0.0009829609
0.26352856 -0.15719862 0.2792922 0.106586516 -0.08893326 -0.13500379 0.28940424 0.02641946
0.1699503 -0.10999149 0.3469241 -0.058888234 -1.1478033 -0.47553352 -0.3959166 -0.3962946
0.101641774 -0.13780552 0.023160696 -0.0059429347 0.20615575 -0.226741 -0.051380247 0.017350078
0.22026554 0.2385355 0.24486354 0.2845991 0.16414797 -0.09809026 -0.2132712 -0.031216055
0.2945799 0.11901796 0.2689995 0.18170989 0.09484348 -0.24007148 -0.0013952851 -0.08327806
-0.061562806 -0.19401097 -0.0005957782 -0.28932253 -0.005910903 0.032695502 -0.23488629 -0.22263584
0.295692 -0.28951147 -0.11604744 0.13975388 0.24447706 0.27171084 0.19999608 0.20354733
-0.091146424 0.19465819 -0.06104958 -0.24374616 -0.17170662 -0.2795327 -0.06592789 0.27561632
0.16857567 -0.14760645 0.09049702 0.25596157 -0.068871245 -0.17999248 -0.16044772 -0.24063852
-0.06462258 -0.20638895 0.23392376 -2.0354986e-05 -0.057962775 0.1582275 0.0786123 -0.116287276
-0.17725883 0.16731057 -2.7767313 -0.17195605 0.15331067 0.29216993 0.27067885 -1.1793816
-0.087636575 0.11792854 -0.5390426 -0.2697957 0.78614134 0.12233683 -0.029230166 -0.4587089
00000000: b2d8 29be f0e3 c63d ecec b5bd e77d 9c3e
00000010: 23e0 8d3e b0e5 dabc 9e19 33be 0018 283a
00000020: 4f9e 8a3e 5f74 2ebe 274e 42be c812 043d
00000030: 14bb 99bd 6ebc 103e cf2e 79be a625 96be
00000040: c80c 223d db3c 97be 5898 9cbe 3eae a1be
00000050: 2e55 87be af0f 53be 5c4c 3b3e 82a6 1f3e
00000060: c005 15bd c09d 6b3c 8ca9 fdbd 7f4f 9fbe
00000070: 283c e13d ea56 98be 6e4e 1b3e 8e70 7ebe
00000080: e973 96be 2392 98be 722e 41be 9447 89be
00000090: c5dd 93be 2238 253e 4cf0 2e3e 17a5 0cbe
000000a0: fd1d 95be be81 0fbe 6bf2 87be acaa df3d
000000b0: 7d93 87be 800d 403c 146c 983d 409c 60be
000000c0: 58d7 1d3d 1ace 46be c1b5 603e 92e0 783e
000000d0: 03cc 34c0 98d1 35be 5413 c33d 05c3 33be
000000e0: b15d 2cbe 2ebc a4bf 1655 3f3e 343c 9dba
000000f0: 78df 613f 4f48 e43c 4643 63c0 998d 1abd
00000100: 94de 953e ede1 b63e 5fd4 a83e 76d1 6fbf
00000110: fd5a 2bbe 6af5 85bc 3478 12bf a4d9 3dbf
00000120: 13bc 5e40 66cd d73d 66ad 9bbe a8a6 38bf
00000130: 639a c4be 2fc4 023f 7b4e 8b3e e576 2a3e
00000140: dc23 eabd e35a d03c 3992 3f3d 8df5 6bbd
00000150: 3e40 e3be 1cd0 61be 3696 0dbe 787a c2be
00000160: 2ecd 373e 2418 4e39 0f8f 53bf b97c cdbe
00000170: 8cf7 dc3f 15d0 82bc ade8 b23c fdd1 693d
00000180: 6138 2cbe c195 4abf 340e 043e a976 d9ba
00000190: eac0 463e fbe8 94be 5072 a73c 1eac 3e3e
000001a0: 84fd 01be ba36 3e3e 1c4e 9e3d c4b4 97bd
000001b0: d5fa 77be d71a a1be 287f 43bd 6803 20bd
000001c0: bfb1 973e c04e e0bd 3604 603e 5660 0b3e
000001d0: b068 8abd 703a 923c 6aa3 473e 6879 8dbe
000001e0: 9056 533d fa7b c0bd 248a f3bd a28d b1bd
000001f0: 02bb 453e c0b0 f13d 10ce fc3c f4db 043e
00000200: 2d47 62be 2079 38bc 199d 23be d4f3 54be
00000210: 871b 8e3e aed1 773e b818 723d 1872 d33d
00000220: c68a 293e 6827 0bbd e268 8abd 8180 4fbe
00000230: f423 f23d 2035 babc 92b2 fbbd fdc7 863e
00000240: 7773 8a3e 24c1 8cbe f53b 81be e85a 83bd
00000250: 9df1 863e 505b b8bc bb9d b83e 865d cd3d
00000260: dd75 56c0 693f 5cbe d69d 483e 07c2 1bbe
00000270: f23a 793e eb34 87bf e099 263d b2d6 80ba
00000280: 37ed 863e adf8 20be 63ff 8e3e 084a da3d
00000290: a422 b6bd 6f3e 0abe cb2c 943e a06d d83c
000002a0: 7407 2e3e 3843 e1bd 09a0 b13e ca34 71bd
000002b0: 38eb 92bf 2179 f3be 95b5 cabe 20e7 cabe
000002c0: 9029 d03d e41c 0dbe 80bb bd3c f3bc c2bb
000002d0: 7e1a 533e cb2e 68be 1874 52bd c021 8e3c
000002e0: 4a8d 613e a642 743e 82bd 7a3e f9b6 913e
000002f0: 6816 283e 8ce3 c8bd c463 5abe d0b8 ffbc
00000300: 2dd3 963e b0bf f33d 4dba 893e 2812 3a3e
00000310: 4c3d c23d 4cd5 75be 00e2 b6ba b08d aabd
00000320: 4829 7cbd d0aa 46be 002e 1cba 1522 94be
00000330: 40b0 c1bb b8eb 053d 0886 70be a6fa 63be
00000340: f164 973e d93a 94be 48aa edbd a41b 0f3e
00000350: 3258 7a3e af1d 8b3e c6cb 4c3e b66e 503e
00000360: faaa babd 7a54 473e 200f 7abd 9898 79be
00000370: dcd3 2fbe e91e 8fbe 3405 87bd 951d 8d3e
00000380: 1a9f 2c3e 2526 17be 8056 b93d 650d 833e
00000390: 5e0c 8dbd f34f 38be 684c 24be f269 76be
000003a0: d858 84bd a057 53be b689 6f3e 00c0 aab7
000003b0: 606a 6dbd 6406 223e 7cff a03d 0628 eebd
000003c0: 5783 35be 7653 2b3e f7b5 31c0 3f15 30be
000003d0: 79fd 1c3e 4c97 953e 6b96 8a3e faf5 96bf
000003e0: ce7a b3bd 8584 f13d b2fe 09bf a922 8abe
000003f0: 8f40 493f bb8b fa3d 1a74 efbc e5db eabe

feet.2.0.bias f4 [128]
0.045008063 0.24918857 0.31505898 -0.26049238 0.28847238 0.05647471 0.16382268 -0.38608384
-0.32741317 0.098359436 -0.31612322 -0.123218 -0.23257111 -0.10756247 -0.15085922 -0.37548432
0.12366155 -0.26283348 -0.024902463 -0.04094985 0.04435748 -0.20906436 0.23198214 0.14110184
0.117065586 -0.55570745 -0.09658523 -0.011582806 -0.06202033 0.08163194 -0.11806798 -0.15176977
-0.22957155 -0.18202055 0.036019355 0.2554848 -0.26302698 -0.012929112 -0.01058051 0.0028502643
-0.28867736 0.077183306 -0.18445067 0.10411754 -0.19993094 -0.1440001 -0.03404951 -0.18904029
-0.15211402 0.06289095 -0.1801438 0.07474302 -0.17913143 -0.39935422 -0.22929575 -0.12748548
0.01823029 0.07479221 0.05509272 -0.30863145 -0.09987071 -0.06631444 -0.25132716 -0.2571707
-0.33121988 0.18803725 -0.16204628 0.31318995 -0.061502222 0.07953155 -0.1962081 0.23362473
0.25147018 0.091391444 -0.07258141 0.064488634 0.24710244 0.39778018 -0.109883904 0.06726173
0.017840363 -0.46200073 -0.15334159 -0.28227177 -0.24574831 0.26054516 0.1341998 -0.27376837
0.090877324 0.14900057 -0.016291857 0.054703277 -0.24721852 0.08839995 0.065723 -0.11478636
-0.26071283 -0.48071244 0.027513266 -0.1914762 0.27667937 -0.10597435 -0.12733898 0.045735866
-0.019123696 0.23207626 -0.46851268 0.2168735 -0.2226047 -0.007945299 0.041495558 -0.19082619
0.21328917 0.22882387 -0.15619622 -0.08430972 0.09978727 -0.13452443 0.09830123 -0.16294864
-0.2777958 -0.25293955 0.006868422 0.17421743 -0.2780934 0.2883214 -0.33625683 -0.3011322
00000000: 605a 383d 4a2b 7f3e 694f a13e 425f 85be
00000010: a7b2 933e 0752 673d 22c1 273e c8ac c5be
00000020: b3a2 a7be ac70 c93d e7da a1be b859 fcbd
00000030: 1f27 6ebe b649 dcbd d77a 1abe 7b3f c0be
00000040: 4442 fd3d 1c92 86be 4000 ccbc 08bb 27bd
00000050: 30b0 353d f814 56be ba8c 6d3e 007d 103e
00000060: 15c0 ef3d d842 0ebf 7ace c5bd cfc5 3dbc
00000070: 0809 7ebd a62e a73d a0cd f1bd 8969 1bbe
00000080: ce14 6bbe 9863 3abe 0889 133d e7ce 823e
00000090: 79ab 86be a0d4 53bc e059 2dbc 80cb 3a3b
000000a0: 85cd 93be 4812 9e3d a3e0 3cbe 943b d53d
000000b0: b2ba 4cbe c374 13be 8077 0bbd c793 41be
000000c0: c7c3 1bbe f8cc 803d 9e77 38be de12 993d
000000d0: 3b6e 37be 2878 ccbe 81cc 6abe 8e8b 02be
000000e0: b057 953c a82c 993d e7a8 613d f104 9ebe
000000f0: 0489 ccbd ddcf 87bd f4ad 80be e1ab 83be
00000100: a795 a9be d68c 403e 76ef 25be 6f5a a03e
00000110: c1e9 7bbd 70e1 a23d c7ea 48be 523b 6f3e
00000120: b3c0 803e 702b bb3d 90a5 94bd 9e12 843d
00000130: 6c08 7d3e d8a9 cb3e d00a e1bd 85c0 893d
00000140: f425 923c 5c8b ecbe 9405 1dbe ed85 90be
00000150: 72a5 7bbe 2d66 853e ac6b 093e 5e2b 8cbe
00000160: e41d ba3d 9b93 183e 8076 85bc 8b10 603d
00000170: da26 7dbe 080b b53d c899 863d 1c15 ebbd
00000180: 277c 85be f11f f6be 8063 e13c 5612 44be
00000190: eba8 8d3e 1409 d9bd 2665 02be 8855 3b3d
000001a0: 4ca9 9cbc 66a5 6d3e e5e0 efbe 1614 5e3e
000001b0: 7df2 63be 002d 02bc 3ff7 293d f167 43be
000001c0: 7a68 5a3e ce50 6a3e e7f1 1fbe 93aa acbd
000001d0: 455d cc3d c6c0 09be 2852 c93d 02dc 26be
000001e0: 403b 8ebe 4b81 81be 8010 e13b 0e66 323e
000001f0: 4262 8ebe dd9e 933e db29 acbe 002e 9abe

body.0.0.weight f4 [64, 128]
0.013528269 -0.07857774 -0.075864054 -0.013748083 -0.045839097 -0.102279246 -0.12618148 -0.028622558
-0.0026043 0.049904786 0.06642332 0.0022262628 0.034457885 0.038693257 -0.050192222 0.08182283
-0.055077888 -0.05170865 -0.032802444 -1.5192031 -0.021374404 0.0411016 -0.07688231 -0.083348654
-0.07309544 -0.09863574 -0.0108382525 0.02202123 -0.110647336 -0.007805065 0.014026995 -0.17852387
-0.016907286 -0.09272683 -0.017405123 -0.026834339 -0.049095728 0.058135085 -0.08002911 -0.0070428387
-0.08713918 -0.10570686 -0.18120152 0.061429236 0.06739786 -0.09732249 -0.096853904 -0.07432281
0.08018066 -0.029236706 0.072263576 0.07874929 -0.115543164 0.02731541 -0.042602196 -0.004767936
0.03762666 -0.026658164 -0.10764895 -0.1284437 -0.07397786 0.03415184 0.07545286 -0.02698944
-0.044720083 -0.06386223 -0.0039364537 -0.08093012 -0.010934007 0.009819176 -0.10943634 -0.04483953
-0.015132134 0.026612185 -0.010573048 0.004234439 -0.020142773 -0.08486025 0.055564307 0.031880926
0.0385638 -0.032131672 0.048973978 -0.010752849 -0.17344967 -0.047434248 -0.004604506 -0.006780728
-0.035252526 -0.022878243 -0.057445243 0.006008183 -0.091047235 -0.107223 0.016680293 -0.09294648
-0.017503738 -0.10635362 -0.070020616 0.04474792 -0.051493082 -0.13357587 0.11255835 -0.0031577037
-0.040464673 0.059577364 -0.022280248 0.03811077 0.0030439515 0.029188842 -0.05881155 0.3266808
-0.059374254 -0.08316246 0.1230577 -0.12947217 0.051422164 -0.07771727 0.029160118 -0.07481216
0.009859986 -0.05917905 -0.036135275 -0.012705669 0.0029445617 -0.0029631015 -0.03191156 -0.14072046
-0.06460155 -0.059695344 -0.100513674 0.0025989325 0.011005466 0.03911553 -0.05960952 -0.11837459
0.05060134 -0.033899628 -0.08489384 -0.025353197 -0.034190737 -0.045975372 0.053930666 -0.0880186
0.05237461 -0.058145147 0.0737677 0.07657037 -0.053155005 0.045191765 0.003713518 -0.107230514
-0.097543195 -0.045182437 0.036983706 0.041862994 -0.12119445 -0.083441556 0.006259338 0.048787646
-0.036250196 -0.0561684 -0.034144647 -0.09221078 -0.040945675 0.07847395 -0.014379777 0.02053241
-0.011047728 0.026947359 -0.038876247 0.0020454004 0.04959963 0.070504166 -0.029034926 -0.09461269
-0.036128916 -0.034420963 0.03857716 -0.048436802 -0.0830525 -0.004130304 0.0028963054 -0.047718655
0.042622693 -0.08388246 -0.10755883 0.05001733 -0.026452718 -0.07778428 0.048312683 -0.017032094
0.0203612 0.060355548 -0.0010632022 -0.046203513 0.006015348 -0.085077815 -0.020658046 -0.09000157
-0.0031771231 -0.03452641 0.07663763 -0.053082585 0.072271496 -0.046334792 0.041579165 0.044760358
-0.007696354 -0.09583269 -0.021106396 -0.0010029074 -0.10615554 -0.050003782 0.01219418 -0.05382659
-0.019175274 0.048449565 0.013863569 0.010223631 0.0629671 0.023066293 0.06887698 0.035025198
-0.08784439 0.045646634 -0.032456633 -0.013530679 -0.022893744 0.059389926 0.05910384 0.0101729985
0.02766867 -0.015245588 -0.07951815 0.079984434 -0.035772976 0.020170778 -0.051132765 -0.0071792416
-0.0867907 0.027099863 0.032416448 -0.039706554 0.06318196 0.0173504 -0.010937631 -0.020137295
0.0365903 0.0008850348 -0.021964967 0.05850268 -0.017048966 -0.033807315 -0.018666063 -0.1046249
00000000: aca5 5d3c 5eed a0bd 9d5e 9bbd a43f 61bc
00000010: c7c1 3bbd c877 d1bd b835 01be db79 eabc
00000020: e7ac 2abb f668 4c3d f308 883d 7ee6 113b
00000030: b623 0d3d d27c 1e3d 5c96 4dbd ba92 a73d
00000040: 5a99 61bd 73cc 53bd db5b 06bd 3f75 c2bf
00000050: 6019 afbc 275a 283d 7974 9dbd b3b2 aabd
00000060: 10b3 95bd 8901 cabd ed92 31bc de65 b43c
00000070: 129b e2bd a1c1 ffbb 7bd1 653c f6ce 36be
00000080: 2681 8abc 90e7 bdbd 3095 8ebc b0d3 dbbc
00000090: 9a18 49bd 0e1f 6e3d 4de6 a3bd 9dc7 e6bb
000000a0: 0776 b2bd d77c d8bd e48c 39be 399d 7b3d
000000b0: e407 8a3d 0351 c7bd 575b c6bd 8f36 98bd
000000c0: c235 a43d d181 efbc edfe 933d 4f47 a13d
000000d0: e5a1 ecbd 91c4 df3c a47f 2ebd 593c 9cbb
000000e0: 6a1e 1a3d 3962 dabc 0d77 dcbd bf86 03be
000000f0: b481 97bd cde2 0b3d 0787 9a3d f518 ddbc
00000100: 682c 37bd 33ca 82bd 5efd 80bb b1be a5bd
00000110: 8d24 33bc 9ce0 203c 2920 e0bd a8a9 37bd
00000120: c5ec 77bc cc01 da3c 943a 2dbc 0dc1 8a3b
00000130: 7502 a5bc 36cb adbd 6697 633d 9395 023d
00000140: 13f5 1d3d 809c 03bd f098 483d b82c 30bc
00000150: ca9c 31be 6a4a 42bd 65e1 96bb df30 debb
00000160: f464 10bd 276b bbbc b44b 6bbd 4be0 c43b
00000170: f976 babd bb97 dbbd 1ca5 883c b95a bebd
00000180: 0064 8fbc edcf d9bd f866 8fbd 9849 373d
00000190: 69ea 52bd 1dc8 08be fe84 e63d 7af1 4ebb
000001a0: 49be 25bd 6507 743d 1185 b6bc 0a1a 1c3d
000001b0: 087d 473b 701d ef3c 61e4 70bd b542 a73e
000001c0: 6b32 73bd 1451 aabd ad05 fc3d 5a94 04be
000001d0: 0ca0 523d 3b2a 9fbd 33e1 ee3c 1e37 99bd
000001e0: c78b 213c bb65 72bd 9502 14bd 702b 50bc
000001f0: 8cf9 403b 9830 42bb b2b5 02bd 0619 10be
00000200: d14d 84bd 1b83 74bd 1dda cdbd da52 2a3b
00000210: 4550 343c 9b37 203d 1d29 74bd 616e f2bd
00000220: 5a43 4f3d 56da 0abd d2dc adbd 82b1 cfbc
00000230: 960b 0cbd ac50 3cbd 67e6 5c3d 1943 b4bd
00000240: c286 563d 9b29 6ebd 8513 973d edd0 9c3d
00000250: 10b9 59bd 001b 393d 7e5e 733b ac9b dbbd
00000260: bac4 c7bd 3811 39bd 3a7c 173d 8878 2b3d
00000270: cc34 f8bd 68e3 aabd 221b cd3b 8ed5 473d
00000280: 167b 14bd d610 66bd 42db 0bbd 01d9 bcbd
00000290: a7b6 27bd f3b6 a03d 2899 6bbc 9633 a83c
000002a0: 8801 35bc b5c0 dc3c b33c 1fbd 200c 063b
000002b0: fb28 4b3d 7d64 903d a7da edbc 4cc4 c1bd
000002c0: eafb 13bd fffc 0cbd 1603 1e3d ab65 46bd
000002d0: 6e17 aabd 8057 87bb f1cf 3d3b a374 43bd
000002e0: 2295 2e3d 91ca abbd ce47 dcbd f9de 4c3d
000002f0: 5fb3 d8bc 5d4d 9fbd 85e3 453d e486 8bbc
00000300: 88cc a63c 6137 773d 255b 8bba e53f 3dbd
00000310: 651c c53b 473d aebd 103b a9bc be52 b8bd
00000320: 4837 50bb 916b 0dbd 31f4 9c3d 206d 59bd
00000330: 1403 943d 8dc9 3dbd ea4e 2a3d a356 373d
00000340: b231 fcbb ee43 c4bd 52e7 acbc fd73 83ba
00000350: 1368 d9bd c4d0 4cbd 19ca 473c 4579 5cbd
00000360: 7715 9dbc 0d73 463d 0624 633c 0481 273c
00000370: e5f4 803d 86f5 bc3c 600f 8d3d 9576 0f3d
00000380: c2e7 b3bd f7f7 3a3d 3ff1 04bd c8af 5dbc
00000390: a98b bbbc da42 733d de16 723d a6ac 263c
000003a0: 68a9 e23c a1c8 79bc 69da a2bd e1ce a33d
000003b0: af86 12bd 303d a53c 9770 51bd d83f ebbb
000003c0: 53bf b1bd 8800 de3c 1cc7 043d 57a3 22bd
000003d0: 8b65 813d 6d22 8e3c c033 33bc f8f6 a4bc
000003e0: b6df 153d ae01 683a e0ef b3bc 82a0 6f3d
000003f0: 46aa 8bbc 8a79 0abd 92e9 98bc 9445 d6bd

body.0.0.bias f4 [64]
-0.19166964 -0.17406315 -0.05564285 -0.097566865 -0.17339456 -0.13828316 -0.09204097 -0.1855959
-0.017906785 -0.057112407 0.014327011 -0.0784161 -0.106816955 -0.061991096 0.11088915 -0.10592326
-0.023353867 -0.008869313 -0.06870005 0.016749606 8.441831e-05 -0.10236736 0.004800506 0.10803683
-0.119692095 -0.18737774 -0.080163315 -0.08490141 -0.032682076 -0.060673803 -0.17525338 0.0069992365
0.06512326 -0.14744547 -0.1296326 -0.010803563 0.0033393141 -0.12934148 -0.2034776 0.004364551
-0.2840344 -0.09183193 0.06229574 0.045614935 0.24288474 0.0018440111 -0.10473067 -0.053460523
-0.20251426 -0.28648272 -0.15540661 0.085428566 0.041714914 -0.10973566 -0.10078697 0.13452971
-0.14379524 -0.035710987 -0.11490152 -0.023625975 0.19232723 0.20488475 0.028839516 -0.064993404
00000000: 0c45 44be 9c3d 32be c2e9 63bd 23d1 c7bd
00000010: 588e 31be 1a9a 0dbe fa7f bcbd da0c 3ebe
00000020: 40b1 92bc b3ee 69bd d7bb 6a3c 9f98 a0bd
00000030: d9c2 dabd 60ea 7dbd da19 e33d 4bee d8bd
00000040: 9c50 bfbc 9850 11bc 9db2 8cbd 7836 893c
00000050: bc09 b138 faa5 d1bd 904d 9d3b 6a42 dd3d
00000060: 2121 f5bd f3df 3fbe aa2c a4bd cae0 adbd
00000070: a4dd 05bd 1885 78bd 9f75 33be da59 e53b
00000080: 585f 853d f2fb 16be 69be 04be 6d01 31bc
00000090: 65d8 5a3b 1872 04be 6f5c 50be 8204 8f3b
000000a0: f56c 91be 6112 bcbd d129 7f3d bad6 3a3d
000000b0: c7b6 783e bfb2 f13a 097d d6bd 6cf9 5abd
000000c0: e65f 4fbe ddad 92be e922 1fbe 2cf5 ae3d
000000d0: 42dd 2a3d 17bd e0bd 6669 cebd 28c2 093e
000000e0: 0f3f 13be af45 12bd 7d51 ebbd 438b c1bc
000000f0: 6ef1 443e 4fcd 513e d940 ec3c 431b 85bd

heads.0.weight f4 [1, 64]
0.029409815 -0.020767374 0.00057159044 -0.01054462 -0.51510924 -0.035922095 0.24969538 -0.20103532
0.042161122 -0.0198563 0.12878226 0.028624186 -0.010389569 -0.1998261 0.015204298 0.4338899
0.0049183904 -0.02837436 -0.07310484 0.27728325 -0.004543455 -0.016841808 0.030932555 0.3066492
0.03046446 0.2486282 0.03287955 -0.056021184 -0.6962556 0.015439329 0.001485303 0.0029261564
0.16039647 -0.013108561 -0.03630384 0.016931014 -0.720614 0.010228658 0.36837935 -0.5219356
-0.0004350692 0.002508238 0.6039694 0.20868982 0.39896086 0.02487474 0.02319621 -0.30404532
-0.016641518 0.009340877 0.094367385 -1.0855722 -0.0048206355 -0.0022662922 -0.011206262 -0.16802138
-0.043392077 0.018405842 -0.020534234 -0.38381535 -0.6508809 0.27084327 0.01019318 0.0028812466
00000000: daec f03c 5720 aabc c9d6 153a 58c3 2cbc
00000010: 33de 03bf 0c23 13bd 25b0 7f3e 34dc 4dbe
00000020: 24b1 2c3d aea9 a2bc 7fdf 033e 457d ea3c
00000030: 0339 2abc 379f 4cbe 731b 793c d126 de3e
00000040: 732a a13b 5971 e8bc feb7 95bd 12f8 8d3e
00000050: 43e1 94bb d5f7 89bc 4566 fd3c 2001 9d3e
00000060: 9a90 f93c 6498 7e3e b5ac 063d 7876 65bd
00000070: cf3d 32bf 3df5 7c3c 80ae c23a c2c4 3f3b
00000080: f93e 243e 4ac5 56bc 56b3 14bd e9b2 8a3c
00000090: 297a 38bf 1a96 273c 389c bc3e 929d 05bf
000000a0: 001a e4b9 4061 243b bd9d 1a3f c9b2 553e
000000b0: 9944 cc3e 1cc6 cb3c fa05 be3c d4ab 9bbe
000000c0: cb53 88bc 7a0a 193c b043 c13d 08f4 8abf
000000d0: 6cf6 9dbb 1386 14bb 789a 37bc cc0d 2cbe
000000e0: e4bb 31bd d9c7 963c 6937 a8bc 7283 c4be
000000f0: 21a0 26bf f8ab 8a3e 4c01 273c 4cd3 3c3b

heads.1.weight f4 [1, 64]
-0.00065835495 0.020924017 0.11442484 0.011100549 0.0519799 -0.0075515355 0.025023185 -0.03077026
-0.040451445 -0.008682334 0.1099873 0.07407972 -0.10552409 0.00018323661 0.006604373 0.02059771
0.12187618 0.00043568283 -0.106358394 0.022771215 -0.08653705 0.086049624 -0.028693527 -0.08521925
-0.02663827 0.036493372 -0.018591156 0.10111737 0.010392836 0.091807306 -0.017517006 0.08659023
-0.004435315 0.11165583 -0.097465545 -0.10492098 0.008423209 -0.11524211 -0.04467597 0.01754427
-0.029169243 0.052911427 -0.03234279 0.019769408 0.0004660173 -0.035293017 0.09670277 0.027487472
-0.047767743 0.0804052 -0.0010868151 -0.07965532 -0.0019696422 -0.079942375 -0.007851735 -0.00029566573
0.10388291 -0.07494393 -0.046602108 -0.10274593 -0.119784914 -0.027621103 -0.01788772 0.008692622
00000000: 7495 2cba d868 ab3c 9257 ea3d 14df 353c
00000010: e0e8 543d df72 f7bb 6cfd cc3c ea11 fcbc
00000020: 6ab0 25bd 5940 0ebc 0641 e13d 1cb7 973d
00000030: 041d d8bd 3423 4039 7f69 d83b 87bc a83c
00000040: 389a f93d 5c6c e439 6ed2 d9bd b38a ba3c
00000050: 563a b1bd c93a b03d b00e ebbc 6e87 aebd
00000060: 8038 dabc 137a 153d 7b4c 98bc a016 cf3d
00000070: b746 2a3c 7805 bc3d d37f 8fbc 3856 b13d
00000080: 1e56 91bb d0ab e43d 049c c7bd d0e0 d6bd
00000090: 8001 0a3c 0e04 ecbd 26fe 36bd 00b9 8f3c
000000a0: 56f4 eebc a7b9 583d e079 04bd 74f3 a13c
000000b0: c953 f439 698f 10bd 1a0c c63d 682d e13c
000000c0: 1ca8 43bd 7bab a43d 7773 8eba 5422 a3bd
000000d0: 1d15 01bb d4b8 a3bd 90a4 00bc 9503 9bb9
000000e0: 90c0 d43d 347c 99bd dae1 3ebd 756c d2bd
000000f0: cb51 f5bd a745 e2bc 4589 92bc 806b 0e3c

heads.2.weight f4 [1, 64]
0.023552198 0.06599219 0.04609874 0.018460333 0.02030028 -0.085541844 0.0009950093 -0.008397114
0.065128334 0.0035120647 0.017689018 0.009182429 0.07934983 -0.027171083 -0.019105762 -0.0082301535
-0.0015363068 -0.026211977 0.025767535 0.008178639 -0.07142869 -0.07010636 0.00108661 -0.024809692
-0.027123451 0.020638227 -0.028499633 0.023443304 0.0021596577 -0.11363067 -0.04921097 0.0069307243
-0.007750186 0.028299086 -0.077178106 0.035991192 -0.10248163 0.005609378 -0.031897932 0.055903405
0.027252065 -0.092176646 -0.111637905 0.004234819 -0.00891302 -0.012060955 -0.000952999 0.098728955
-0.0025265962 0.068601266 -0.012029687 0.024045425 -0.025923472 -0.00012701392 0.051532716 0.00054270413
0.023377836 -0.05095616 -0.033074204 0.09304908 -0.027184403 0.005175667 0.0019645838 0.0097628385
00000000: 8af0 c03c ea26 873d 08d2 3c3d 203a 973c
00000010: c64c a63c 9030 afbd f96a 823a 0d94 09bc
00000020: 0162 853d ab2a 663b 8fe8 903c e671 163c
00000030: 2a82 a23d e495 debc b083 9cbc c4d7 06bc
00000040: e75d c9ba 80ba d6bc 7016 d33c b3ff 053c
00000050: 3449 92bd ec93 8fbd 956c 8e3a b23d cbbc
00000060: 0032 debc 8011 a93c 1078 e9bc 2c0c c03c
00000070: 0b89 0d3b 32b7 e8bd 7191 49bd 211b e33b
00000080: 46f5 fdbb 7cd3 e73c 8e0f 9ebd 806b 133d
00000090: e4e1 d1bd e0ce b73b 68a7 02bd f8fa 643d
000000a0: b93f df3c 1cc7 bcbd 6aa2 e4bd 3dc4 8a3b
000000b0: ea07 12bc 509b 45bc aed2 79ba 6832 ca3d
000000c0: 4095 25bb d27e 8c3d 2a18 45bc e9fa c43c
000000d0: 765d d4bc 0a2f 05b9 f813 533d 4244 0e3a
000000e0: e082 bf3c 68b7 50bd d178 07bd 8490 be3d
000000f0: d3b1 debc a498 a93b 3fc0 003b 50f4 1f3c
